training/pretrained_model/current_model_600.pth (torch_old, 349474 bytes, 25 tensors)

weight f4 [32, 1, 2, 2]
00000000: 6ca8 febe d0f6 bd3e ff17 adbf 0700 b1bf
00000010: ea65 153f ab8b 0cbf 2bd7 ae3d 9af1 0f3e
00000020: be50 5dbf f239 8abe f40e aebd cbf2 13bf
00000030: 64f6 f63e c855 8abf c0ca 87bf b362 97c0
00000040: e7f1 8cbe bd14 90be 26d3 8dbc 9955 1fbd
00000050: 7a9f cbbe 4d0c fbbe e53e a13e 8651 80be
00000060: e233 703e 3322 37be b1b8 1d3e f0fe f83e
00000070: 9908 19bf 6467 5a3f bab3 f2bf cca7 5a3f
00000080: 55dc 8b3e e358 073f 3afc dabe cbc4 993c
00000090: f758 bebe 583a 6abf 5b13 78bf 45c0 73c0
000000a0: 3528 3f3f 68b7 193f c3db 553f 2b48 343f
000000b0: 19c3 943e 912a f93e 9485 b7be 3003 c43f
000000c0: 5b84 fbbe b79e 8abe 4ace 933e 039d 8bbc
000000d0: e7a6 6d3f 6596 c8be 80eb acbe 0494 95be
000000e0: d904 f0bd 0314 afbe 319d d83e 51eb cc3c
000000f0: 50a8 7b3e 4f8d 26bf 8f31 09bf 1bea 4f3e
00000100: 6ea5 b23e 29cb 8b3f 2e73 cabf c702 88bd
00000110: 18fb 1abe 17f7 023f 64a0 94bf 136c 48bd
00000120: abd7 483f 1ad1 4e3e c46e 763f 3fad 103f
00000130: 67b7 903e 9f6d 7f3e d055 b43d 1b08 5b3c
00000140: 0de9 2bbe 7f52 043f e3f8 9c3e fe9e 0c3f
00000150: 00f2 2d3f 30b5 e83e 131d dc3e abdb 0c3f
00000160: edd5 abbe 5d63 073d 9506 c33e 45e9 cdbe
00000170: fe7f 24be eca9 cbbc f73a 003e 6684 3640
00000180: 91f9 f0be 4729 08bd 9594 58bf 0616 07be
00000190: 451d cf3e c907 40bf bc4f eb3f 07bf 66be
000001a0: 01d8 4d3f f833 893f 1ea1 0cbf 1c7e 6d3f
000001b0: 60e7 6a3f bafa 923f 47bd ec3e 80a9 3f3f
000001c0: ecb2 a03e 49d6 ab3e 1453 7a3e 2fbf bb3e
000001d0: 5987 023f 925e 563f 2ceb f63e 792d 7f3f
000001e0: f6a0 82be 90f9 713e 4e34 c1bf 6d30 0dbf
000001f0: 37a2 d43e 8773 f73f 7572 943f e1fb e73c
-0.4973787 0.37102365 -1.3522948 -1.3828133 0.58358634 -0.54900616 0.08537134 0.14057007
-0.8645133 -0.26997334 -0.08498946 -0.5779235 0.48234856 -1.0807428 -1.0608749 -4.7307982
-0.27528307 -0.28140822 -0.017312597 -0.03889999 -0.39770108 -0.49032822 0.31493297 -0.25062197
0.23457292 -0.1788414 0.15402485 0.48632002 -0.59778744 0.8531401 -1.8961098 0.8541229
0.27316537 0.52870005 -0.4277056 0.018770596 -0.3717725 -0.91495275 -0.96904534 -3.8086102
0.74670726 0.6004548 0.83538455 0.7042262 0.29055098 0.48665288 -0.358441 1.5313473
-0.49124417 -0.27074215 0.28868324 -0.017042642 0.928328 -0.39177242 -0.33773422 -0.2921449
-0.117196746 -0.34194955 0.42307428 0.025014551 0.24575925 -0.6505937 -0.53591245 0.20304148
0.34891838 1.0921375 -1.58164 -0.06641155 -0.15134847 0.5115828 -1.1611447 -0.048931193
0.78454083 0.20196953 0.96262765 0.5651435 0.28264925 0.24944161 0.0880543 0.013368632
-0.1678812 0.5168838 0.30658635 0.549301 0.6794739 0.45450735 0.42990932 0.55022687
-0.3356165 0.033053745 0.3809096 -0.40217033 -0.1606445 -0.024861299 0.12522493 2.851831
-0.47065404 -0.03324249 -0.8460172 -0.13191995 0.40452018 -0.7501188 1.8383708 -0.22533809
0.8040772 1.0718985 -0.54933345 0.9277055 0.917593 1.1482766 0.46238157 0.7486801
0.31386507 0.33561924 0.24445754 0.366693 0.50987774 0.8373805 0.48226297 0.9967876
-0.25513428 0.23630357 -1.5094087 -0.55152017 0.4153001 1.9332131 1.159743 0.028318347

bias f4 [32]
00000000: 1756 3abd cf53 d43e 2818 d53d 2515 9e3e
00000010: 3d4c dd3e c3ae bb3e 8890 7c3e 6585 d2be
00000020: a384 c03d c8c4 87be 8041 d1be 1dd0 c3be
00000030: 18d2 c63e 3c0b 573e 449c abbe 6c02 acbe
00000040: 3d84 c63d 11b4 483e f51b c4bd c01a a83e
00000050: b568 483e a714 b23d 9037 1ebe e4b9 e6be
00000060: 91e7 78bd 2b7e 323e 0780 973e 16da e13e
00000070: 94da 0b3e 4ec5 b4be 4274 963d 6963 263e
-0.045492258 0.4147019 0.10404998 0.30875507 0.43222228 0.3665677 0.2466451 -0.41117397
0.094002984 -0.2651732 -0.40870285 -0.38244715 0.38832164 0.2100038 -0.3351766 -0.33595598
0.09693191 0.1959994 -0.09575645 0.3283291 0.19571193 0.08695345 -0.15450883 -0.45063698
-0.060767714 0.17430942 0.29589865 0.441117 0.136576 -0.35306782 0.07346393 0.1624886

weight f4 [32]
00000000: 47c7 803d 69be 263d 169e 8b3f a8ad a73f
00000010: c72b 413e 4176 1f3d 73da 40ba 2df1 963f
00000020: 5852 213d 401d 0940 965b fe3e a2ff 493d
00000030: 6753 03ba 7d70 1d3f 8761 79bc 271e 473d
00000040: 556b 0c3f 3a0d 78ba fda7 8b3e e8b1 7d3c
00000050: 93d5 dd3c 6481 3b3d a8a8 71ba 89fd 823e
00000060: 1906 a83e 3365 213f 1a2c 143d d6cb 883f
00000070: 4af6 e2b9 7d81 f23f 0c89 383f ccd7 0d3f
0.06288009 0.040708933 1.0907619 1.3099871 0.18864356 0.038931135 -0.000735677 1.1792351
0.03938517 2.1424103 0.4967925 0.049316056 -0.00050096813 0.6149977 -0.015221006 0.04861274
0.54851276 -0.000946242 0.27276602 0.015484311 0.02707938 0.045777693 -0.0009218552 0.25584057
0.32817152 0.6304504 0.03617487 1.0687206 -0.0004328958 1.8945767 0.72084117 0.55407405

bias f4 [32]
00000000: 4f01 36bf fa3d b5be 07ce b9be a0b9 433d
00000010: 8c9c 97be 9541 a2be 75b3 a7bd 113b cebc
00000020: 2c32 04bf a9ac f1be d183 0ebe ad33 d8be
00000030: 7463 33bc 44c2 2cbf c0ea 0bbe 1201 e9be
00000040: 17a1 333e 758d 1fbe c01c a73e 2432 21be
00000050: abc7 65be 6891 c1be e689 c3bd 73be acbe
00000060: 11ae d9be dca6 123e 1118 a9be 6bf1 d73e
00000070: 03c5 f2bd d04e b5bc 0d3a b5bd 8aea a83d
-0.71095747 -0.35398847 -0.3629 0.047784448 -0.29611623 -0.3169066 -0.081885256 -0.02517465
-0.51639056 -0.47202042 -0.13917471 -0.42226925 -0.010949004 -0.67483926 -0.13663769 -0.4550863
0.1754192 -0.15581305 0.32639122 -0.15741783 -0.22439449 -0.3780625 -0.095477864 -0.3373905
-0.42515615 0.14321464 -0.33026174 0.42176375 -0.11853983 -0.022132307 -0.08848963 0.0824786

running_mean f4 [32]
00000000: 370e e2c2 06fd af42 4380 28c3 ece8 c0c1
00000010: b484 66c2 75a3 a6c2 6b8f 2f42 4fd4 c0c2
00000020: eb7e 6a42 fc73 1cc3 6e65 2b43 a1ab 9e42
00000030: fb53 b4c2 7370 0d43 9d5e c8c1 f468 7e41
00000040: 84d6 8d42 eb3c e3c1 c8b8 2543 fcbc 6d42
00000050: d3a7 8cbf 1b2f 1343 7493 63c2 1999 e840
00000060: d0a5 c4c2 a539 9142 3593 3243 ec83 5643
00000070: 6c71 9442 8ca1 0743 a6e6 85c2 03a7 1943
-113.02776 87.99419 -168.50102 -24.113731 -57.629593 -83.31925 43.890057 -96.414665
58.623943 -156.45306 171.39621 79.33521 -90.164024 141.43925 -25.046198 15.900623
70.918976 -28.404745 165.7218 59.434555 -1.0988716 147.184 -56.893997 7.2686887
-98.32385 72.61259 178.57503 214.51532 74.22153 135.63104 -66.950485 153.65239

running_var f4 [32]
00000000: 75a0 1f48 12e9 4f48 1f52 dd48 1452 6148
00000010: de79 4047 f1e1 cf47 d797 0647 cc7c 7448
00000020: 97dd 5f47 f4d2 2448 39ba b048 a507 8647
00000030: 41e1 0f48 f23b fb48 0a7c 5346 6107 5347
00000040: 0365 f947 ed6b d746 05d0 b848 4242 4747
00000050: c0cb e346 6d3c 8e48 1005 8447 6d1c c446
00000060: 43e1 0448 d184 fb47 4521 da48 57dc 0c49
00000070: 804f 8147 366a 4148 23d1 3f47 15d4 8a48
163457.83 212900.28 453264.97 230728.31 49273.867 106435.88 34455.84 250355.19
57309.59 168779.81 361937.78 68623.29 147333.02 514527.56 13535.01 54023.38
127690.02 27573.963 378496.16 51010.258 29157.875 291299.4 67594.125 25102.213
136069.05 128777.63 446730.16 576965.44 66207.0 198056.84 49105.137 284320.66

weight f4 [64, 32, 2, 2]
00000000: 96b4 2fbe 2429 30bc 6120 15be d99e 98bd
00000010: 1e99 6dbd f691 96bc e025 20ba 4f13 a53c
00000020: 480a ffbd d80a 92bd a2f9 3bbd 22b0 e4bd
00000030: 770f 97bd 4b26 93bd 759c 3dbe d8ad 1cbe
00000040: 3564 cabd 2ef0 31be 4074 33bc dfaf c3bd
00000050: 2df8 82bd ecc0 4ebd 6021 dbbd 0ed7 d9bd
00000060: 2b27 95bc 6022 4c3d 6e17 1d3d 2924 903d
00000070: f16e 1dbe 0394 3bbd 4d8f 3cbe 908f 47bd
00000080: 5638 1dbd e9fd 03bc 1df2 3bbd 1d13 64bc
00000090: b3fa b9bd 2e4d 64bd 59a7 5cbe 2afc 90bd
000000a0: 0be0 2abc 6ee2 1ebe dd48 4fbd 2936 8f3d
000000b0: ad84 adbd 7d62 a3bd 8f6b cbbd 39ab 743d
000000c0: 4149 e8bc 6a6b 3fbd 2ca7 123a 38e8 88bd
000000d0: 6de1 0abd 1b3d e4bd da24 28bd da3b cbbd
000000e0: 967c 333d a488 1f3d 7d8a 0cbc a830 873d
000000f0: c5c6 903b d34d c7bb d04c cfbd a96b a23d
00000100: ef6b 2bbe 49f2 21bd 2896 e9bd f5ab 00bd
00000110: ccf0 0cbe c28c d63c c5b8 b4bc fda4 d1bd
00000120: aa55 673c 28b4 f1bd 4cd6 6dbc 25db 113d
00000130: 4e2a 8e3b 585c dc3c b6ff 303c 36ab 3fbd
00000140: 2bb4 04be 32e2 a03c e85d d7bd 4f84 e4bd
00000150: 2301 68bd 52e1 7ebc e9df 9d3c 76b5 05be
00000160: 7ca5 7bbc f0da fd3c 9e37 46bd 377f 8c3d
00000170: 6387 5dbc d7ae 36be a288 33bb aacf 433d
00000180: a78d 1bbe 811f 863b a3ca 9cbd 94c1 f6bd
00000190: fe77 25bd 2c0b a3bd 07d6 84bd 4fb0 c3bd
000001a0: 313e a93c 20d9 173d c034 ffbd bfd4 17be
000001b0: 9df1 3ebd f54f 9bbc e8e9 18be 8e17 88bd
000001c0: e4bc ac3d fc9b a03c 31e8 a53d 7d27 b4bd
000001d0: debb 82bb 387c babd 2a83 a03c 86b3 353d
000001e0: 2f3c dcbd 59ba 413d d2d3 63be 5758 2fbe
000001f0: bbea c3bd 6e5b 56bd 6f7e c4bd a047 a03c
00000200: c1ea 14be 2ad2 bfbd e2a0 b5bd 5db8 4bbe
00000210: 293a 61bd 2b78 493d 5dbe 483c 80da b93c
00000220: f13f 0fbd 41c0 8abd e40e c8bd e8f3 113d
00000230: ae4f 95bd 5ecf 00be d025 f1bd 1633 82bc
00000240: 1ffe e33b 564a f2bd fced 5fbc 1498 87bc
00000250: 214a a3bd 1c59 063d 564b 483c 3194 95bd
00000260: eadc 98bd 001a 84bd 1a90 6f3d eac6 8cbd
00000270: 2096 5fbd 890a b6bd ef39 a0bd 5ff5 38be
00000280: 9462 f3bc f41b 92bc e85d eb3b d887 38bc
00000290: 9f91 8bbd 1aa2 14be c060 acbd 62dd 30be
000002a0: 4984 2a3d 2c86 2a3c 8125 9dbc a37b 91bc
000002b0: bc56 e8bd 8908 e1bc e0ca a13c 5696 673d
000002c0: d76c 123c 64bd 5fbd b178 d8bc 36cd 93bc
000002d0: 577d ca3b 3ca6 76bd 5035 d5bd da59 483c
000002e0: 6056 a83d 68b8 c93c f292 3fbc 6bb0 49bd
000002f0: a8a6 833c 70a1 b2bc 0682 a2bd caaa 0bbd
00000300: 9d0e 94bb 6f7d aa3c c9ad 0abc 142b 863c
00000310: 11f5 0fbe f703 93bd 539b 7abd 9e8a 11be
00000320: 16e5 4b3d fc74 dfbd c178 87bd 48d8 a23c
00000330: da30 423d 8322 b0bd 200c c4bb 4a17 40bd
00000340: 00e8 38bb bb49 523c d932 0bbb 129e 72bd
00000350: c945 76bd c1c2 3d3b 4283 98bd c413 b8bc
00000360: e638 3ebd f21e 81bd 4dee cbbc 9fbf 9ebc
00000370: 4b4f d2bd 7e45 ccbd 103e e5bd 692a a5bd
00000380: 4472 c5bd 09cb acbd 9443 02be e2cf 8ebd
00000390: a8a1 efbd 6297 d6bd 805c ebbd 99c0 98bd
000003a0: d5df 42bd 5df5 813d 41de 7fbc f012 cf3c
000003b0: 7dd8 5a3d 144f e2bc f9fb cd3c bced f13c
000003c0: 1c6a 11bd 178f 203d 883a 8dbd 2f24 843d
000003d0: ae4d 75bd d519 93bc 7312 97bd 1021 f3bb
000003e0: 8957 9cbd 7f75 23bd cdb5 ebbc ddc5 a6bd
000003f0: d680 c5bd 982c c3bd 7d9c 993c 7221 a5bd
-0.17158732 -0.010751996 -0.14563133 -0.07452173 -0.058007352 -0.018380146 -0.00061091594 0.020150809
-0.12453133 -0.071309745 -0.045892365 -0.11166407 -0.073759966 -0.07185038 -0.18516715 -0.15300691
-0.09882394 -0.17376778 -0.010953009 -0.09555029 -0.06394992 -0.050476953 -0.10699725 -0.106367216
-0.018207153 0.04983747 0.038352422 0.07038147 -0.15374352 -0.04579545 -0.1841404 -0.048720896
-0.038383804 -0.008056142 -0.045885194 -0.013920573 -0.0908102 -0.055737667 -0.21548213 -0.070793465
-0.010429393 -0.15516064 -0.050606597 0.06992752 -0.084725715 -0.079777695 -0.099326245 0.059733603
-0.028355243 -0.046733297 0.00055943686 -0.06684917 -0.03390639 -0.111444674 -0.04105077 -0.09923525
0.043819986 0.03894867 -0.00857794 0.06601077 0.0044182264 -0.0060822754 -0.10122073 0.07930691
-0.16740392 -0.0395377 -0.11405593 -0.03141399 -0.13763732 0.026190165 -0.022060761 -0.10236547
0.014119545 -0.1180194 -0.014516424 0.035609383 0.004338539 0.026899502 0.010803154 -0.04679414
-0.12959354 0.019639108 -0.10515958 -0.11158048 -0.05664171 -0.01555665 0.019271808 -0.13057503
-0.015359279 0.030988187 -0.048392884 0.06860202 -0.013521048 -0.17840134 -0.0027394672 0.047805466
-0.15190755 0.004093111 -0.076558374 -0.12048641 -0.040397637 -0.07961115 -0.06486135 -0.095551126
0.020659538 0.0370723 -0.12461233 -0.1482725 -0.04661714 -0.018959025 -0.14932978 -0.06645118
0.084344655 0.01960563 0.081009276 -0.08796594 -0.0039896807 -0.09105724 0.019593794 0.04436066
-0.107536666 0.047296856 -0.22248772 -0.17123543 -0.09566256 -0.052333288 -0.09594428 0.019565403
-0.14542677 -0.093662575 -0.088685766 -0.19894548 -0.054987106 0.049186867 0.012252417 0.022687197
-0.03497309 -0.06774951 -0.09768465 0.035632998 -0.07290588 -0.12579104 -0.1177479 -0.0158935
0.006957784 -0.11830585 -0.01366758 -0.016552009 -0.07973123 0.032799825 0.012224993 -0.07303656
-0.07464011 -0.064502716 0.058487035 -0.06873877 -0.05458653 -0.08888728 -0.0782355 -0.18062352
-0.029710092 -0.017835595 0.0071828254 -0.011262856 -0.068148844 -0.14514962 -0.08416891 -0.17271951
0.041630063 0.010407966 -0.019182922 -0.01775915 -0.11344668 -0.02746989 0.019750059 0.056539856
0.008937082 -0.054623976 -0.026424738 -0.018042188 0.0061794925 -0.060217127 -0.10410559 0.0122284535
0.082196 0.024624065 -0.011692749 -0.04924051 0.016070679 -0.021805495 -0.07934956 -0.034098424
-0.0045183436 0.020811765 -0.008464285 0.016377963 -0.14058329 -0.071784906 -0.061183285 -0.14213035
0.04977902 -0.10910985 -0.06614829 0.019878522 0.04740987 -0.086003326 -0.0059828907 -0.04689721
-0.0028214455 0.0128349615 -0.0021240024 -0.05923278 -0.060125146 0.0028955194 -0.074469104 -0.022470362
-0.04644098 -0.063047305 -0.024893904 -0.019378481 -0.1026903 -0.09974192 -0.11193478 -0.0806473
-0.09640935 -0.084371634 -0.12721092 -0.06973244 -0.11700755 -0.10478093 -0.11492252 -0.0745861
-0.047576744 0.063456275 -0.015616954 0.025277585 0.053429116 -0.027625598 0.025144564 0.029532306
-0.035501584 0.03919896 -0.068959296 0.06452214 -0.059888534 -0.017956654 -0.07376566 -0.007419713
-0.076338835 -0.039906975 -0.028773213 -0.08143208 -0.09643714 -0.0952999 0.018751377 -0.0806302

bias f4 [64]
00000000: 6ee8 80be 37e0 b3bd bc7f 50be 91ea 07be
00000010: 3002 64be 9987 13be 81e3 bdbe 8234 b2be
00000020: fb86 86bd 1889 0cbe f2fc 51be ca7d 43be
00000030: 59e3 74be bac6 a9bd c1a3 c3bd 914c 40bd
00000040: c8a0 94bd 5b31 d6bd 820d 35be f00c f0bd
00000050: 52e8 48bd 4782 f8bc 026d 00be 7f97 56be
00000060: 34ff cf3e 8773 13be aa66 153e 5c09 65be
00000070: 7db0 57be 39c5 b6be 5c5b 57be e56f 97be
00000080: 6c0b a7be e00f 84bd ddc1 78be c8c0 ecbd
00000090: f0a7 45be 4348 49be 4a1c e4bd 8282 33bd
000000a0: 8d33 ffbe 0298 21be 4006 46be c51b f73d
000000b0: 3884 50bd 779f c7be a88f bcbd 002f 393f
000000c0: 88fc 94be 1c5e abbe 2038 cbbd 5281 f9bd
000000d0: 5abf 48be 68bd 7fbe 9145 f0be 42cd 2ebe
000000e0: 68e1 04be 61a3 6bbe dbd0 46be 0ca9 e6be
000000f0: f84d fbbd d7c1 ccbd 7538 9dbe bdd9 9ebd
-0.2517733 -0.08783 -0.20361227 -0.13273074 -0.2226646 -0.14407195 -0.37087634 -0.34805685
-0.06568714 -0.13724172 -0.20506647 -0.19090953 -0.23914851 -0.08289857 -0.09552718 -0.04694802
-0.07257229 -0.104586326 -0.17680934 -0.11721218 -0.049049683 -0.030335559 -0.12541583 -0.20956229
0.40624392 -0.14399539 0.14589944 -0.22366852 -0.21063419 -0.35697344 -0.21030945 -0.29577556
-0.32625902 -0.064483404 -0.24292703 -0.115602076 -0.19302344 -0.19656472 -0.11138208 -0.043825634
-0.49844018 -0.15780643 -0.19338322 0.120658435 -0.050907344 -0.3898885 -0.09207088 0.7233734
-0.29098916 -0.33470237 -0.09922814 -0.12182869 -0.19604245 -0.24974597 -0.46928075 -0.17070487
-0.1297661 -0.23011543 -0.1941561 -0.45050848 -0.12270731 -0.099979095 -0.30707136 -0.07756374

weight f4 [64]
00000000: 28f6 5c3f 5d4f 353f 0415 063e 04ed 6b3e
00000010: 149b 083e c798 773f b9a8 183f 72e0 423f
00000020: 385d 503e 6234 3b3f 5bb3 113f 8dd0 3e3f
00000030: bacf ca3e 14cf 8e3e 5fbd 793f 3481 c33e
00000040: 90d8 fa3d dde2 2e3f f067 5f3e 343b 103e
00000050: 0674 ac3e b033 a13d bf9b 3c3f c228 3f3f
00000060: bc61 c63e dc04 123f ea0f 563f b0ae 3b3f
00000070: 92e1 7a3f 38f0 ab3e 0042 d63e ba37 103f
00000080: 5413 f23e 424b 233f 80dc 9c3c e798 123f
00000090: 0c7f 513f 8915 1e3f a060 a53e f450 143f
000000a0: a315 183f 7c49 613e 0022 4c3d 90ca 723e
000000b0: 70a5 dc3e c6ad 073f 9b44 5a3f ad5d 103f
000000c0: 7a9c e73e 1310 2e3f 4408 d63e 6860 663f
000000d0: 08c8 343f 78c7 fb3e b88e 353e 3c9b 0f3f
000000e0: d6c5 b33e de8b f63e 7e8e 5c3f 50e2 663f
000000f0: a81b ed3d 4bc7 5d3f bdd3 4e3f 8876 6b3e
0.86313105 0.70824224 0.13093954 0.23039633 0.13340408 0.96717495 0.5963245 0.76123726
0.2034806 0.73126805 0.569143 0.74536973 0.39611608 0.27892363 0.9755458 0.38184512
0.12248337 0.68314916 0.21816993 0.14085084 0.3368227 0.07871187 0.7367515 0.74671566
0.3874644 0.57038665 0.8361803 0.73313427 0.98000443 0.3358171 0.4184723 0.5633503
0.4728037 0.6378671 0.019148111 0.5726456 0.81834483 0.6175161 0.32300282 0.57936025
0.59408015 0.22000688 0.049837112 0.23710084 0.4309497 0.5299953 0.85260934 0.5639294
0.4523657 0.6799328 0.4180318 0.89990854 0.70617723 0.4917562 0.17730224 0.56096244
0.35111874 0.48153585 0.86154926 0.90189075 0.11577541 0.8663222 0.80791837 0.22994435

bias f4 [64]
00000000: 0000 0000 0000 0000 0000 0000 0000 0000
00000010: 0000 0000 0000 0000 0000 0000 0000 0000
00000020: 0000 0000 0000 0000 0000 0000 0000 0000
00000030: 0000 0000 0000 0000 0000 0000 0000 0000
00000040: 0000 0000 0000 0000 0000 0000 0000 0000
00000050: 0000 0000 0000 0000 0000 0000 0000 0000
00000060: 0000 0000 0000 0000 0000 0000 0000 0000
00000070: 0000 0000 0000 0000 0000 0000 0000 0000
00000080: 0000 0000 0000 0000 0000 0000 0000 0000
00000090: 0000 0000 0000 0000 0000 0000 0000 0000
000000a0: 0000 0000 0000 0000 0000 0000 0000 0000
000000b0: 0000 0000 0000 0000 0000 0000 0000 0000
000000c0: 0000 0000 0000 0000 0000 0000 0000 0000
000000d0: 0000 0000 0000 0000 0000 0000 0000 0000
000000e0: 0000 0000 0000 0000 0000 0000 0000 0000
000000f0: 0000 0000 0000 0000 0000 0000 0000 0000
0.0 0.0 0.0 0.0 0.0 0.0 0.0 0.0
0.0 0.0 0.0 0.0 0.0 0.0 0.0 0.0
0.0 0.0 0.0 0.0 0.0 0.0 0.0 0.0
0.0 0.0 0.0 0.0 0.0 0.0 0.0 0.0
0.0 0.0 0.0 0.0 0.0 0.0 0.0 0.0
0.0 0.0 0.0 0.0 0.0 0.0 0.0 0.0
0.0 0.0 0.0 0.0 0.0 0.0 0.0 0.0
0.0 0.0 0.0 0.0 0.0 0.0 0.0 0.0

running_mean f4 [64]
00000000: 0000 0000 0000 0000 0000 0000 0000 0000
00000010: 0000 0000 0000 0000 0000 0000 0000 0000
00000020: 0000 0000 0000 0000 0000 0000 0000 0000
00000030: 0000 0000 0000 0000 0000 0000 0000 0000
00000040: 0000 0000 0000 0000 0000 0000 0000 0000
00000050: 0000 0000 0000 0000 0000 0000 0000 0000
00000060: 0000 0000 0000 0000 0000 0000 0000 0000
00000070: 0000 0000 0000 0000 0000 0000 0000 0000
00000080: 0000 0000 0000 0000 0000 0000 0000 0000
00000090: 0000 0000 0000 0000 0000 0000 0000 0000
000000a0: 0000 0000 0000 0000 0000 0000 0000 0000
000000b0: 0000 0000 0000 0000 0000 0000 0000 0000
000000c0: 0000 0000 0000 0000 0000 0000 0000 0000
000000d0: 0000 0000 0000 0000 0000 0000 0000 0000
000000e0: 0000 0000 0000 0000 0000 0000 0000 0000
000000f0: 0000 0000 0000 0000 0000 0000 0000 0000
0.0 0.0 0.0 0.0 0.0 0.0 0.0 0.0
0.0 0.0 0.0 0.0 0.0 0.0 0.0 0.0
0.0 0.0 0.0 0.0 0.0 0.0 0.0 0.0
0.0 0.0 0.0 0.0 0.0 0.0 0.0 0.0
0.0 0.0 0.0 0.0 0.0 0.0 0.0 0.0
0.0 0.0 0.0 0.0 0.0 0.0 0.0 0.0
0.0 0.0 0.0 0.0 0.0 0.0 0.0 0.0
0.0 0.0 0.0 0.0 0.0 0.0 0.0 0.0

running_var f4 [64]
00000000: 0000 803f 0000 803f 0000 803f 0000 803f
00000010: 0000 803f 0000 803f 0000 803f 0000 803f
00000020: 0000 803f 0000 803f 0000 803f 0000 803f
00000030: 0000 803f 0000 803f 0000 803f 0000 803f
00000040: 0000 803f 0000 803f 0000 803f 0000 803f
00000050: 0000 803f 0000 803f 0000 803f 0000 803f
00000060: 0000 803f 0000 803f 0000 803f 0000 803f
00000070: 0000 803f 0000 803f 0000 803f 0000 803f
00000080: 0000 803f 0000 803f 0000 803f 0000 803f
00000090: 0000 803f 0000 803f 0000 803f 0000 803f
000000a0: 0000 803f 0000 803f 0000 803f 0000 803f
000000b0: 0000 803f 0000 803f 0000 803f 0000 803f
000000c0: 0000 803f 0000 803f 0000 803f 0000 803f
000000d0: 0000 803f 0000 803f 0000 803f 0000 803f
000000e0: 0000 803f 0000 803f 0000 803f 0000 803f
000000f0: 0000 803f 0000 803f 0000 803f 0000 803f
1.0 1.0 1.0 1.0 1.0 1.0 1.0 1.0
1.0 1.0 1.0 1.0 1.0 1.0 1.0 1.0
1.0 1.0 1.0 1.0 1.0 1.0 1.0 1.0
1.0 1.0 1.0 1.0 1.0 1.0 1.0 1.0
1.0 1.0 1.0 1.0 1.0 1.0 1.0 1.0
1.0 1.0 1.0 1.0 1.0 1.0 1.0 1.0
1.0 1.0 1.0 1.0 1.0 1.0 1.0 1.0
1.0 1.0 1.0 1.0 1.0 1.0 1.0 1.0

weight f4 [64, 64, 1, 1]
00000000: 8d84 e4bb 98d5 8bbd 3d0e 8d3d 3d16 0a3d
00000010: 04ea 5fbd fa92 b53d bd49 2ebf 56ea 8b3c
00000020: c5fb 42bc 137a f5bd d2c7 b9bd cdf5 39bd
00000030: e42b cd3c 48de 9cbe 11eb 573e 8567 193e
00000040: 0c8b a03d d133 8c39 6597 22be 5e84 433d
00000050: e58a b93c cca2 5e3d 934e 6dbd a1c8 263e
00000060: a53a c8bd 1b41 013d c4b3 543d defb 80be
00000070: 4459 cfbd 7e28 063f 095b f43c 80df fd3e
00000080: 713a 1b3e b7ed 7e3d b12c ebbd 38e9 ddbd
00000090: faa4 063e 1ad9 cfbd 1e01 c93d 0dda ba3e
000000a0: 4ad8 b9be c476 6b3d 35f9 433e f66e 1b3e
000000b0: 2155 bebd e092 16bf 965f f73c e782 a6be
000000c0: d802 863d b02c 4a3a 4d24 7bbd 7696 5ebd
000000d0: b8be 8d3e 9705 7bbd ec50 c3bd be0e db3d
000000e0: 5e84 8fbd 705a 96bd f94a 38bd dcdd 5a3d
000000f0: 5ccb 72bd 9ce5 eebd 44b5 90bd c00b 503d
00000100: c5bd f6bd babc 99bd 45bf 7fbd 5a40 20bd
00000110: cdca 803d 9f53 afbd d268 843d 7be4 3a3d
00000120: eb4f 533b 765a 99bd e6df 92bd 16df e43d
00000130: 3b93 84bc 25e9 283c 8571 06be 5a80 633d
00000140: bd9a 8b3d 2828 983d 18ee 083a 5312 15bc
00000150: 37f4 f0bd 1e01 473c 38f2 08be 81d7 95be
00000160: d5b4 8bbe 641f b1bb 4673 23bc 1292 88bd
00000170: 1f97 d23c 565b cfbb 076b 5e3d 538f c6bd
00000180: 2ed9 f73d fec9 c73d 861c 87bd c4e8 babd
00000190: 5f80 02bd 90ef 9bbd c87f 8a3d 4372 51be
000001a0: 39f2 2a3c 13a9 503d 578a 6b3d 46da 4fbd
000001b0: b2ad c0bd 985d 863c b236 023d 2116 0dbe
000001c0: 8346 7abd 4016 c6bd 9519 ac3d 7b8a 1b3d
000001d0: bbcf 153d b7f5 babd 9fa4 8abd 5399 ecbc
000001e0: ba0a 483c 45b3 8a3d 00dc 78bd 1598 3cbd
000001f0: 791b 553d 9c1e 003e 039a 94be d9e5 afbc
00000200: 1130 44be c825 d7bd db11 a1bd dfb0 7b3d
00000210: c5dd dc3c d152 84bd 59e4 693d 1dbf 7f3d
00000220: 793f c6bd a9b8 45bb f853 123d ce82 863d
00000230: c433 25be e56b cf3c da47 c2bd 6b41 753c
00000240: d882 363d 308b 503c 8ade 9f3d 6748 613d
00000250: 0555 b63d 9c9b f23c 6310 853d 92cf aabd
00000260: d1d9 a2bd 6d68 c2bc 8355 153d 75df 983c
00000270: e455 a9bb 8db9 e5bd 128a 50bd 0d73 96bd
00000280: 77c9 9fbd f133 523c c8a0 d1bd d5b1 99bd
00000290: fe72 7bbd 40f9 24bd a101 b2bb 10d5 d7bc
000002a0: c435 b8bd 6869 f7bd 9518 573d fec2 00bd
000002b0: c34d 8abc 345f 81bd a3a8 7bbc a193 04be
000002c0: 17cc 93bd e45e e3bd 7f3e 703d 7f01 893d
000002d0: 8048 633c 4140 2039 efdb 67bd 6173 523d
000002e0: 28b3 96bd e1e1 8e3d d8b6 04be 610c 26bd
000002f0: 91a2 f6bc 93e1 35b8 b891 13bd ae6d 04bc
00000300: 7aac ce3c c4d9 5e3d 7c63 173e e40e 3a3d
00000310: 90cd 7dbd a1c0 283d 8b2c b33d e320 82bd
00000320: 2066 073d de0b 97bd 157d 953c 8ead cebd
00000330: c38f 243c 6190 72be b356 cbbc 9db7 eabd
00000340: ba94 92bd d590 1d3d 4a83 493c 7ade f1bd
00000350: 2be9 853d 37c9 e5bd 39be 20bc 8333 cc3d
00000360: 79ea 05be 4c00 5b3d b80c 213d 1697 503d
00000370: 4567 b0bd 3622 56bc 4a9d f93c 22fd 78bd
00000380: 5bde 7e3d 9c40 1d3d 1916 13bd 3780 0d3c
00000390: 068d 4abc e53d c6bd ce58 063d 51ee 43bb
000003a0: cd05 a7bd a4a3 d9bd 66ff 12bb 8dbd 383d
000003b0: af4a 9a3d a1bf 93be 502a fa3d badc 27be
000003c0: 3b5a 983d 054a d13c a7ae 443b c2d7 0e3d
000003d0: a4db 4cbd b04c 3e3d 62f3 37be 2a0f b73c
000003e0: cec5 c93d b617 da3b c6d2 2abd ee1e efbd
000003f0: 4324 d93c 53ab 00bd 005b d0bd 6e2a 063d
-0.006973809 -0.06827849 0.06887481 0.033712614 -0.054666534 0.08865924 -0.68081266 0.017079514
-0.011900847 -0.119861744 -0.09071316 -0.04540043 0.025045343 -0.30638337 0.21085764 0.14980896
0.07839021 0.00026741487 -0.15878065 0.047733657 0.022649238 0.054354474 -0.057936262 0.16287471
-0.097768106 0.03155623 0.05192925 -0.2519216 -0.10124448 0.52405536 0.029828565 0.4958458
0.15159012 0.06223842 -0.114831336 -0.108354986 0.13148871 -0.10148831 0.09814666 0.36494485
-0.36297828 0.05748631 0.19138034 0.15179047 -0.09293581 -0.58817863 0.030196946 -0.32521746
0.06543511 0.00077123474 -0.061313916 -0.05434271 0.2768457 -0.061284628 -0.09536919 0.10696171
-0.07007669 -0.07341468 -0.044993374 0.053434238 -0.05927597 -0.11664888 -0.07065824 0.050792456
-0.120479144 -0.075067 -0.06243827 -0.03912387 0.06288681 -0.08560871 0.064653054 0.045628052
0.003224368 -0.07487957 -0.071716115 0.11175363 -0.016183486 0.010309492 -0.13129242 0.055542327
0.06816623 0.07429534 0.0005223467 -0.009098607 -0.1176533 0.012146262 -0.13373649 -0.2926598
-0.272864 -0.0054053534 -0.009976214 -0.06668486 0.025706826 -0.0063280268 0.054301288 -0.09695306
0.121019706 0.09755324 -0.06597237 -0.09126428 -0.031860705 -0.07614052 0.067626536 -0.20453744
0.010433727 0.05094249 0.057504978 -0.05074527 -0.0940813 0.01640205 0.031790443 -0.13777973
-0.0611024 -0.096722126 0.08403317 0.037973862 0.03657506 -0.09128898 -0.0676968 -0.028881704
0.012209589 0.06772474 -0.060756683 -0.046043474 0.052028153 0.12511677 -0.29023752 -0.021471905
-0.19158961 -0.10505253 -0.07864734 0.061447974 0.026961217 -0.064611085 0.057102535 0.06243812
-0.09680075 -0.003016988 0.03572461 0.06567918 -0.16133028 0.025320003 -0.09486361 0.01496921
0.044558376 0.012728497 0.07806118 0.05500069 0.08902935 0.029615216 0.06497266 -0.08340372
-0.079517014 -0.023731435 0.036458503 0.01866124 -0.0051677097 -0.11217032 -0.050912924 -0.07346163
-0.07802098 0.012829767 -0.10235745 -0.07504622 -0.061388962 -0.040276766 -0.005432323 -0.026346713
-0.0899463 -0.120806515 0.052513678 -0.03143596 -0.016882783 -0.06316987 -0.01536003 -0.12946941
-0.072166614 -0.11102083 0.05865335 0.066897385 0.013872266 0.00015282726 -0.05660623 0.051379565
-0.0735839 0.06976677 -0.12960374 -0.04053915 -0.030106815 -4.3363845e-05 -0.03602764 -0.00808279
0.025228728 0.054406896 0.14784044 0.045424357 -0.061963618 0.04119933 0.0874873 -0.06353929
0.03305638 -0.0737531 0.01824812 -0.10091697 0.010044041 -0.23687889 -0.024821615 -0.11460803
-0.071572736 0.0384682 0.012299368 -0.11810012 0.06538614 -0.11220019 -0.009810978 0.099707626
-0.13077725 0.05346708 0.03931877 0.050925337 -0.08613447 -0.01306968 0.03047051 -0.06078828
0.062223773 0.038391694 -0.035909746 0.008636526 -0.012362724 -0.09679774 0.032799534 -0.0029896686
-0.08155403 -0.10626915 -0.0022430061 0.045102645 0.07533776 -0.2885714 0.12215102 -0.16392794
0.07439085 0.02554799 0.0030011327 0.03487373 -0.050014153 0.046459854 -0.17963937 0.022346098
0.098521814 0.0066556586 -0.041704915 -0.11675821 0.026506549 -0.031413388 -0.10173607 0.032755308

bias f4 [64]
00000000: 106e 1dbf fe50 4bbe 83e0 78be 6c03 adbe
00000010: b7cd abbe bcb4 6ebe 2d5e 1bbf 2644 9cbe
00000020: ec68 58bb d225 d1be 2186 54be 17a4 3abf
00000030: 8669 9e3d f684 83be 97c8 f0be 27fd 95be
00000040: 4a76 41be 3d7e 4bbe 6986 1bbe 0838 fabd
00000050: aeeb bbbe 8789 073a 7688 9fbe fc31 82be
00000060: c076 10be 84cc 063f 8124 98be 56b5 07be
00000070: 294b 06be 198c a1be 284e 21be 2958 b3bc
00000080: fc7c 6fbe d90d 75bf 10e2 44be 998d e2be
00000090: d971 433f f11d 14be 3813 54be ae0c 87bd
000000a0: 24b5 053e bced 0fbd ff29 f0be 9138 44bd
000000b0: a522 f2be dd5b b2be b995 f1bd 2bc4 f0bd
000000c0: 69ed 88be c267 08be 0268 da3e dd73 14bf
000000d0: 1001 a2be 7a72 09bf 342f 5ebe 4523 7dbe
000000e0: e2f7 2cbf 2a1b 3cbe 5c69 87be 89a9 a23d
000000f0: 4d4b d0be 4693 d7be 1bae dbbe 9f79 88be
-0.6149607 -0.19855115 -0.24304394 -0.33791673 -0.33555385 -0.23311132 -0.60690576 -0.30520743
-0.0033021523 -0.40849167 -0.20754291 -0.7290663 0.07734971 -0.2568738 -0.47028038 -0.29294702
-0.1889278 -0.19872375 -0.15187992 -0.12217718 -0.36703247 0.00051703345 -0.311588 -0.2542876
-0.141078 0.52655816 -0.2971535 -0.13252768 -0.13114609 -0.315522 -0.1575247 -0.021892624
-0.23387522 -0.95724255 -0.19226861 -0.44248655 0.7634559 -0.14464547 -0.20710456 -0.06594215
0.13057381 -0.03513883 -0.4690704 -0.04790551 -0.47292057 -0.3483571 -0.117961355 -0.11756166
-0.2674363 -0.1332083 0.42657477 -0.57989293 -0.31641436 -0.536903 -0.21697694 -0.24720486
-0.6756574 -0.18369737 -0.2644757 0.079424925 -0.4068245 -0.42104548 -0.4290627 -0.2665529

weight f4 [64]
00000000: 90ff b03e 95d2 2e3f 74e2 493e 4176 493f
00000010: c692 5c3f 4cef 473f 9a2d d93e 50d6 a23d
00000020: c217 d83e 2890 633f 303b 1b3f 408d 703d
00000030: a224 d93e f4f5 273e 3c9c 863e f0db e23e
00000040: 3861 913d 961f e83e c7e0 6d3f 29a8 033f
00000050: 16b6 483f 4056 0d3d 5bcc 423f a516 2e3f
00000060: 9348 6c3f a454 2d3f 28a1 933d 40d3 033c
00000070: 9c02 dc3e 927e 773f 1cd6 1e3f 2e33 d03e
00000080: c420 533f 4946 1e3f a96e 053f 5610 023f
00000090: 986f ea3d d41b 373e ec08 ab3e 8857 f93e
000000a0: 640c 253e 821d 413f 5ff1 263f 60d0 943e
000000b0: 8ed7 173f 9ce1 b33e 5717 443f 5aae 323f
000000c0: 043d 663e 66da e13e 69ef 543f 8c87 613f
000000d0: f440 103f eb5f 7f3f 215e 753f b050 f33e
000000e0: db4f 073f 6190 083f 8432 8e3e 834d 6e3f
000000f0: ead4 253f db2f 3d3f 5832 903e 3ca6 153f
0.3456998 0.6829007 0.19715291 0.78696066 0.8616146 0.78099513 0.42417604 0.07951033
0.42205626 0.8889184 0.6063719 0.058728456 0.4241076 0.16402417 0.26291072 0.44308424
0.07098621 0.45336598 0.9292111 0.5142847 0.7840284 0.034506083 0.7609307 0.680033
0.9229824 0.67707276 0.072084725 0.008045971 0.4297074 0.96677506 0.62045455 0.40664047
0.8247187 0.61825997 0.5212198 0.50806177 0.11447066 0.1788171 0.33405244 0.48699594
0.16118008 0.7543565 0.65212053 0.29065228 0.59313285 0.35133064 0.76598114 0.6979729
0.22484213 0.44111937 0.8317781 0.88097453 0.5634911 0.99755734 0.95846754 0.47522497
0.52856225 0.53345305 0.27772915 0.93087023 0.64778006 0.73901147 0.2816341 0.5845678

bias f4 [64]
00000000: 0000 0000 0000 0000 0000 0000 0000 0000
00000010: 0000 0000 0000 0000 0000 0000 0000 0000
00000020: 0000 0000 0000 0000 0000 0000 0000 0000
00000030: 0000 0000 0000 0000 0000 0000 0000 0000
00000040: 0000 0000 0000 0000 0000 0000 0000 0000
00000050: 0000 0000 0000 0000 0000 0000 0000 0000
00000060: 0000 0000 0000 0000 0000 0000 0000 0000
00000070: 0000 0000 0000 0000 0000 0000 0000 0000
00000080: 0000 0000 0000 0000 0000 0000 0000 0000
00000090: 0000 0000 0000 0000 0000 0000 0000 0000
000000a0: 0000 0000 0000 0000 0000 0000 0000 0000
000000b0: 0000 0000 0000 0000 0000 0000 0000 0000
000000c0: 0000 0000 0000 0000 0000 0000 0000 0000
000000d0: 0000 0000 0000 0000 0000 0000 0000 0000
000000e0: 0000 0000 0000 0000 0000 0000 0000 0000
000000f0: 0000 0000 0000 0000 0000 0000 0000 0000
0.0 0.0 0.0 0.0 0.0 0.0 0.0 0.0
0.0 0.0 0.0 0.0 0.0 0.0 0.0 0.0
0.0 0.0 0.0 0.0 0.0 0.0 0.0 0.0
0.0 0.0 0.0 0.0 0.0 0.0 0.0 0.0
0.0 0.0 0.0 0.0 0.0 0.0 0.0 0.0
0.0 0.0 0.0 0.0 0.0 0.0 0.0 0.0
0.0 0.0 0.0 0.0 0.0 0.0 0.0 0.0
0.0 0.0 0.0 0.0 0.0 0.0 0.0 0.0

running_mean f4 [64]
00000000: 0000 0000 0000 0000 0000 0000 0000 0000
00000010: 0000 0000 0000 0000 0000 0000 0000 0000
00000020: 0000 0000 0000 0000 0000 0000 0000 0000
00000030: 0000 0000 0000 0000 0000 0000 0000 0000
00000040: 0000 0000 0000 0000 0000 0000 0000 0000
00000050: 0000 0000 0000 0000 0000 0000 0000 0000
00000060: 0000 0000 0000 0000 0000 0000 0000 0000
00000070: 0000 0000 0000 0000 0000 0000 0000 0000
00000080: 0000 0000 0000 0000 0000 0000 0000 0000
00000090: 0000 0000 0000 0000 0000 0000 0000 0000
000000a0: 0000 0000 0000 0000 0000 0000 0000 0000
000000b0: 0000 0000 0000 0000 0000 0000 0000 0000
000000c0: 0000 0000 0000 0000 0000 0000 0000 0000
000000d0: 0000 0000 0000 0000 0000 0000 0000 0000
000000e0: 0000 0000 0000 0000 0000 0000 0000 0000
000000f0: 0000 0000 0000 0000 0000 0000 0000 0000
0.0 0.0 0.0 0.0 0.0 0.0 0.0 0.0
0.0 0.0 0.0 0.0 0.0 0.0 0.0 0.0
0.0 0.0 0.0 0.0 0.0 0.0 0.0 0.0
0.0 0.0 0.0 0.0 0.0 0.0 0.0 0.0
0.0 0.0 0.0 0.0 0.0 0.0 0.0 0.0
0.0 0.0 0.0 0.0 0.0 0.0 0.0 0.0
0.0 0.0 0.0 0.0 0.0 0.0 0.0 0.0
0.0 0.0 0.0 0.0 0.0 0.0 0.0 0.0

running_var f4 [64]
00000000: 0000 803f 0000 803f 0000 803f 0000 803f
00000010: 0000 803f 0000 803f 0000 803f 0000 803f
00000020: 0000 803f 0000 803f 0000 803f 0000 803f
00000030: 0000 803f 0000 803f 0000 803f 0000 803f
00000040: 0000 803f 0000 803f 0000 803f 0000 803f
00000050: 0000 803f 0000 803f 0000 803f 0000 803f
00000060: 0000 803f 0000 803f 0000 803f 0000 803f
00000070: 0000 803f 0000 803f 0000 803f 0000 803f
00000080: 0000 803f 0000 803f 0000 803f 0000 803f
00000090: 0000 803f 0000 803f 0000 803f 0000 803f
000000a0: 0000 803f 0000 803f 0000 803f 0000 803f
000000b0: 0000 803f 0000 803f 0000 803f 0000 803f
000000c0: 0000 803f 0000 803f 0000 803f 0000 803f
000000d0: 0000 803f 0000 803f 0000 803f 0000 803f
000000e0: 0000 803f 0000 803f 0000 803f 0000 803f
000000f0: 0000 803f 0000 803f 0000 803f 0000 803f
1.0 1.0 1.0 1.0 1.0 1.0 1.0 1.0
1.0 1.0 1.0 1.0 1.0 1.0 1.0 1.0
1.0 1.0 1.0 1.0 1.0 1.0 1.0 1.0
1.0 1.0 1.0 1.0 1.0 1.0 1.0 1.0
1.0 1.0 1.0 1.0 1.0 1.0 1.0 1.0
1.0 1.0 1.0 1.0 1.0 1.0 1.0 1.0
1.0 1.0 1.0 1.0 1.0 1.0 1.0 1.0
1.0 1.0 1.0 1.0 1.0 1.0 1.0 1.0

weight f4 [512, 64]
00000000: c1f1 25be 27b9 3f3d 8c83 043e 5e68 043d
00000010: 64c6 953c a9bc f2bb 6479 d1bd 4114 67be
00000020: 1304 afbd e7b2 b53c 2f22 d0bd feeb cb3b
00000030: 1e07 25bd 012b 483e 2071 0bbd 3957 663c
00000040: 2189 1a3c fadd c6bd b6bc debd a92a 1fbe
00000050: 6ee9 2dbd df59 45be 8529 6abd eaac a7bc
00000060: 8178 203d 63db e3bd 2ba0 10bd daa0 ac3d
00000070: 5aa4 b7bd 2157 c6bd f0bb a23c 46ac bb3d
00000080: 00b5 873d 8558 3cbe fd1d 193c 2072 12bb
00000090: 951c 68bc 8800 e6bd bbbd 11be e0b6 0abc
000000a0: a6c2 2bbd 94b4 8d3c add4 7cbb 8b43 6abb
000000b0: 78c1 97bd 640c 73bb 5548 0d3d 0841 58bd
000000c0: f500 9ebc 3621 793c 7e14 07be 0aee df3b
000000d0: f52e 9fbd 172e 44bd 09be eabc ac93 063d
000000e0: 7dab 0e3c 5eed 74bd d516 1bbd e2b8 3ebc
000000f0: c830 5cbd 1d7c e33c c994 98bd 2ead d0bd
00000100: d9b0 edbc 8c27 b5bd baad debb 81df cfb8
00000110: 393f bbbc aaa0 a0bd b8b9 e0bc a217 d4bd
00000120: 962f 923c 0671 093e 19e1 59bd 6595 e2bd
00000130: 4a17 2e3d aa0a 8d3c bfe8 cabc 13e0 77bd
00000140: 96a6 f43d 48d3 553d 1f94 85bd 5135 15be
00000150: 3637 8b3d 1a40 a8bd 2a90 f83b 51f0 61bc
00000160: 69a9 c53b 6f3a 2dbd bcc4 c33d 880c 153d
00000170: 5d7a e83b 380a 773d 48b7 a7bc 5e0f 7dbd
00000180: 9afe cbbd 1fe5 1bbe f3af b9bd 9695 ffbd
00000190: be0e bcb8 df7e 1fbd 3fa5 89bd 5f59 e53d
000001a0: 190b 79be aeba 3bbd 7c15 e4bd 31fb b43d
000001b0: c463 3bbb 9e1a 303c 49af 27bd 3f07 9e3d
000001c0: d27e debd a0cb a1bd 8696 88bc c566 54be
000001d0: 69ad 23bc e668 f6bc 9aa1 cd3d 9ac6 94bc
000001e0: e6ad 9fbc e3b2 d0bd 9300 833b e7d0 fb3d
000001f0: 99c6 2dbd 3f37 87bd 5d45 a33d a03d 5c3d
00000200: fa90 75be c86e ea3d fc28 ccbd fae5 13bd
00000210: 8570 d43d 8c74 4cbd 2e97 66bc e6c7 7abd
00000220: 57a8 44bc c15e 0b3b 366c 64bd 9884 42be
00000230: f94a 1abd a28d 3fbd 33c6 21bd f81a fcbd
00000240: 7848 89bd 2b20 52be 5120 70bc 408b 68bd
00000250: 51b6 09be 6fa0 ccbd f067 67be c377 a9bd
00000260: 70f4 26be 41d3 9bbe 2542 e73c c286 99bc
00000270: 43e7 223c 3b4e f1bd 302e e2bc e053 96bd
00000280: e1a0 e4bd 523e b93d 3deb 51bd 4854 dabd
00000290: 017a 17bd 977c 1e3e ea58 83bd 1ada c63d
000002a0: de6e cbbe d6bb 453d 9028 a3bd ded8 f8bd
000002b0: b835 e7bd 9908 023d c6af 09be 80c6 63be
000002c0: 828c c4bd 4394 32bd 2b77 01bd cbc6 e1bd
000002d0: b877 6d3d f5d2 edbd 9ccd e53d bfb2 93bd
000002e0: 052c 2cbe f8d6 fb3c 4331 53be 54f5 babd
000002f0: 6bdc fdbd d5d2 76bd 20d6 68bc acb0 8a3d
00000300: 12d9 dfbd f2d3 a5bd a088 6abd 564c 44bd
00000310: 5c81 85bd 368e 903b 5cec f3bd 68e6 5c3d
00000320: 3bee 8cbd b8fd c83c 2752 973d 2f9b 943d
00000330: bd2c d93d ffd2 93bd 20c5 e73c 231e 11bd
00000340: cce6 4a3d d460 ebbd 1260 663d 2d56 7b3d
00000350: 1e41 ac3d f9ea cfbd 9f01 a33d 4da1 ac3d
00000360: 6b9a e33c 3dd1 3cbe ba8f 6cbd cf06 06bd
00000370: 59e4 3e3d fefb 8dbd 58d8 c6bd 6e37 bb3d
00000380: 62b4 76bd 5b9c 1d3d 162d 72bd 8708 8b3d
00000390: 71ee 48bd 5962 283d 4ed5 a03d 27fa 283d
000003a0: d95c a83c d072 8a3d 195c 213e 796f 97bd
000003b0: 38f1 ecbd 9742 6cbc 280c 6bbd 35dc e0bd
000003c0: 2208 ab3d a49d b13d 2e78 eebd bc67 913d
000003d0: c8a7 02ba 1537 e0bd 5c1b 29bd 1077 5ebd
000003e0: 3fd8 c8bd 44b7 8b3d 2331 01be 466e 993d
000003f0: 06de 6ebc d587 c43b e5d1 03bd 60e6 273c
-0.16205503 0.046807434 0.12940806 0.032326095 0.018283077 -0.007407744 -0.102282315 -0.2256632
-0.08545699 0.022180034 -0.1016277 0.006223201 -0.04028999 0.19547655 -0.03404343 0.014058881
0.009432108 -0.097103074 -0.108758375 -0.15543617 -0.042458944 -0.19272564 -0.057168502 -0.020468194
0.03917742 -0.11125829 -0.035308998 0.084291175 -0.089668944 -0.09684587 0.019865006 0.09163718
0.0662632 -0.18393143 0.009345529 -0.0022345856 -0.014166971 -0.1123057 -0.14232533 -0.008466452
-0.041933678 0.01729802 -0.0038578913 -0.0035745825 -0.07409948 -0.0037086243 0.03449281 -0.052796394
-0.019287566 0.015205672 -0.13191411 0.0068337964 -0.07772628 -0.047895517 -0.028655069 0.032855675
0.008707878 -0.059796683 -0.03786357 -0.011640759 -0.05375746 0.027769143 -0.074502535 -0.101892814
-0.029014992 -0.088454336 -0.006795612 -9.91216e-05 -0.022857295 -0.07843144 -0.027432308 -0.1035607
0.017844956 0.13422021 -0.053193185 -0.11063651 0.04250268 0.017217 -0.024769185 -0.06051643
0.11945836 0.052203447 -0.065223925 -0.1457112 0.0679764 -0.082153514 0.007585545 -0.013790206
0.006032158 -0.042292055 0.095590085 0.036388904 0.007094665 0.06031248 -0.020473137 -0.061782233
-0.09960671 -0.15224122 -0.09066763 -0.12479703 -8.9672845e-05 -0.038939353 -0.06720971 0.11198687
-0.2432064 -0.04583233 -0.1113691 0.088369735 -0.00285934 0.0107485335 -0.04093865 0.07716226
-0.10864033 -0.079001665 -0.016673338 -0.20742328 -0.009990075 -0.030079316 0.10040589 -0.018161107
-0.0194921 -0.1019037 0.003997871 0.12295704 -0.042425726 -0.06602334 0.07972214 0.053769708
-0.23981085 0.11446911 -0.09968755 -0.036107995 0.10373024 -0.049915835 -0.01407413 -0.061225794
-0.012003026 0.0021266195 -0.05576726 -0.18995893 -0.037669156 -0.04676593 -0.039495658 -0.123098314
-0.067032754 -0.20520084 -0.014656142 -0.056773424 -0.13448454 -0.09991538 -0.22598243 -0.08274796
-0.16304183 -0.3043461 0.028229782 -0.018741015 0.009942832 -0.117824994 -0.027609915 -0.07340217
-0.11163498 0.0904509 -0.05124973 -0.106606066 -0.036981586 0.15477215 -0.064134434 0.09709568
-0.39733022 0.048274837 -0.07966721 -0.12150739 -0.11289543 0.03174648 -0.13445958 -0.2224369
-0.09597112 -0.043598425 -0.031607788 -0.11024245 0.0579755 -0.116125025 0.112208575 -0.072118275
-0.16813667 0.030742154 -0.2062426 -0.09128824 -0.12395557 -0.06025966 -0.014211208 0.06771979
-0.10930075 -0.08097066 -0.057259202 -0.047924362 -0.06518814 0.004411484 -0.11910316 0.05393067
-0.06881376 0.024535045 0.07388716 0.072561614 0.10604236 -0.07217979 0.028292239 -0.03542913
0.04953651 -0.11493078 0.056243964 0.06136148 0.084108576 -0.10152239 0.079592936 0.08429203
0.027783593 -0.18439193 -0.057754256 -0.032721337 0.046604488 -0.06932829 -0.09709233 0.09141432
-0.06023062 0.03847919 -0.05912503 0.06788736 -0.04905552 0.041109417 0.07853185 0.04125419
0.020552086 0.0676018 0.15757789 -0.073943086 -0.11569446 -0.014420173 -0.05738464 -0.10979501
0.083511606 0.08672646 -0.11644016 0.07099864 -0.0004984108 -0.10948006 -0.041285858 -0.054312766
-0.09806871 0.068220645 -0.126164 0.07491736 -0.014579302 0.0059976378 -0.032182593 0.010247797

bias f4 [512]
00000000: 82bf b5bd 285e 54be 4981 8abe c3d8 68be
00000010: c2d7 39be 006f 40be 1109 75be a3ee 27be
00000020: 3c8c 70be 6f04 4fbe 2368 83be 5e05 0ebe
00000030: e2e6 5abe aaaf 3fbe 7a8c 44be 976c 08be
00000040: a4c2 48be 7fb8 49be 990b 5dbe dc70 0b3d
00000050: 801b a3be 7248 24be 6e68 34be afa0 32be
00000060: 6d90 36be 4ce0 3bbe 743b 32be 4eeb 1ebe
00000070: 7ccc 2dbe 5ac4 c0bd c9e5 27be dc46 16be
00000080: d180 88be 2091 99be 69de 65be 78a2 a6be
00000090: b27c 3abe d0c2 4cbe 60e4 d1be 0bb7 64be
000000a0: c3b8 c6be 7190 14be 6325 23be 5a4d 56be
000000b0: 5ed6 8bbe dcb1 d4bd 9ca4 2abe 5fa3 45be
000000c0: 56ac 2ebe 8c2b 0ebe e3d2 97be a3f1 8cbe
000000d0: a9c5 84be a220 00be 3ad7 25be af06 7dbe
000000e0: 9f43 0bbe 2e97 9ebe 28a4 53be 37e1 25be
000000f0: dd67 34be 8bc5 73be 8c67 0fbe 40d0 68be
00000100: 67fc 46be db31 74be 1c35 d2be d353 54be
00000110: 2a77 6ebe 71d6 82be ea62 85be dca0 89be
00000120: cc87 2cbe 5493 81be f43f 9dbe e9eb 83bd
00000130: 1af2 45be 601a 5bbe 52ae 01be 3de9 11be
00000140: 0cbe 7bbe b019 b4bd 689a 0dbe 8901 99be
00000150: 41ab 6fbe 6d01 78be b532 5abe de8e 1ebe
00000160: 3799 9abe 5051 27be fa81 3cbe 8a47 30be
00000170: 63e6 24be 30c4 82be e33c efbd a66d 37be
00000180: ff8f 32be a9e7 57be ac97 5ebe 6a38 16be
00000190: 250a 61bd b0f1 04be 4ed5 1abe 9341 4cbe
000001a0: 5747 4dbe b0b3 6abe 486a 4fbe 5a28 90be
000001b0: a077 8abe 09df ccbe ece4 43be 0cc9 03be
000001c0: 35e4 76be fd95 5cbe a853 51be 5fb4 74be
000001d0: bbad d8be 24db 34be 6844 2cbe db6e cdbd
000001e0: f165 24be fd04 01be ab92 33be 48b5 a1be
000001f0: 0c11 51be b686 3cbe 8416 91be 5da8 72be
00000200: 9c3f 6cbe bcce 44be f2ec 47be 565e 0abe
00000210: 5f98 58be 14d7 5fbe 9c81 2cbe 0201 8fbe
00000220: 9fc9 25be 237c debe d846 1cbe 4606 2fbe
00000230: 62d8 6abe 15a4 4ebe 3cff 3dbe 45d1 93bd
00000240: ca32 1dbe 9e7a 03be 8037 51be a975 9cbe
00000250: c141 6bbe 6223 92be 2ade 30be f8ab 0dbe
00000260: 54fe 55be d78b 40be 394e 47be 6be6 69be
00000270: 9e41 03be c913 a0bd 8e55 5cbe 819c 2cbe
00000280: 4aa0 3cbe 38f8 15be 0f5d 2ebe b797 09be
00000290: 4d0e 42be 7ce1 95be 5def 4bbe 2aa5 6dbe
000002a0: 6eb5 53be 4d89 53be cde2 39be 5be2 5abe
000002b0: affc 80be 320b 30be 6778 1abe 9017 8fbe
000002c0: 31c2 34be 7640 75be 9179 f2bd 06da 66be
000002d0: 8204 21be 7807 33be 3ddb 56be ffff 6cbe
000002e0: ab53 61be f0cf 96be 721f 28be 932a 9abe
000002f0: 5ce9 69be 0a6d 77be 2cf8 2ebe ef97 6ebe
00000300: 4184 d6bd 26ff 57be 9bdd 25be 6f0a 35be
00000310: 3e5f b2be b3a4 60be 8ed5 e1bd 503d 74be
00000320: df7d 2abe 4a5b cebc 9de7 1cbe 2b55 3cbe
00000330: ba64 0cbe d55b 9fbe bcb5 6bbe e841 32be
00000340: 9812 79be bcf5 27be 1c1d 6bbe d6c6 8ebe
00000350: 2173 4fbe c5a4 39be 6ba8 3bbe 9616 45be
00000360: d6f1 15be d248 2cbe 267e 91be 94b5 25be
00000370: dd4a 32be d9c5 39be 7994 17be cb36 48be
00000380: dfae 13be 9dd8 98be fca9 1abe c04f 52be
00000390: 1933 5cbe 15ff 5fbe ba54 64be a68e 76be
000003a0: 1408 41be a185 53be 0d35 15be d7e1 9fbe
000003b0: 1d87 35be ad62 50be e648 20be b7a4 a9be
000003c0: 386c 3abe 13eb ebbd 3e87 89be e4af 04be
000003d0: baa0 12be 37bc 42be 420a 82be 8ae8 a5be
000003e0: 6ed7 3fbe 33a9 73be dcb4 d3bd e825 46be
000003f0: f844 20be cc7c 2ebe 0a09 56be fb58 3bbe
-0.08874418 -0.20739043 -0.27051762 -0.22738938 -0.18148711 -0.18792343 -0.2392924 -0.16399626
-0.23490995 -0.20216535 -0.25665388 -0.13869235 -0.21377137 -0.18719354 -0.19194213 -0.13322674
-0.196055 -0.19699286 -0.21586455 0.034043178 -0.31856918 -0.1604326 -0.17617962 -0.17444108
-0.17828532 -0.18347281 -0.17405492 -0.15519449 -0.16972536 -0.09412451 -0.1639625 -0.14675468
-0.2666078 -0.29993534 -0.22448124 -0.3254583 -0.1821163 -0.1999619 -0.4099455 -0.2233545
-0.38812837 -0.14508225 -0.1593223 -0.20927945 -0.27311987 -0.103854865 -0.16664356 -0.19300602
-0.17057928 -0.138838 -0.2965308 -0.27528104 -0.25932053 -0.12512448 -0.16195384 -0.24709581
-0.13600014 -0.30974716 -0.2066809 -0.16199194 -0.17617746 -0.23805825 -0.14004344 -0.22735691
-0.19432221 -0.23847143 -0.41056144 -0.20735101 -0.23287645 -0.2555423 -0.26052028 -0.26880538
-0.16848677 -0.25307715 -0.30712855 -0.06441481 -0.19330636 -0.2139678 -0.12664154 -0.1424913
-0.24584216 -0.08793962 -0.13828433 -0.29883984 -0.23405172 -0.24219294 -0.21308406 -0.15484187
-0.3019502 -0.16339612 -0.18408957 -0.1721479 -0.1610351 -0.25540304 -0.11681535 -0.17912921
-0.17437743 -0.21084465 -0.21737546 -0.14669958 -0.054941315 -0.12982821 -0.15120432 -0.1994689
-0.20046745 -0.22920108 -0.20255387 -0.28155786 -0.27044392 -0.40013912 -0.19130296 -0.12869662
-0.24110492 -0.21541591 -0.20442069 -0.23896931 -0.42320046 -0.1766172 -0.1682297 -0.1003091
-0.16054513 -0.12599559 -0.17536418 -0.3158362 -0.20416659 -0.18410763 -0.2833749 -0.23697038
-0.2307114 -0.19219488 -0.19523981 -0.13512549 -0.21151875 -0.2185939 -0.16846317 -0.27930456
-0.16190194 -0.43454084 -0.152614 -0.17092237 -0.22934106 -0.2017978 -0.18554395 -0.07217649
-0.15351406 -0.12839743 -0.20431328 -0.30558518 -0.22974302 -0.2854262 -0.17272249 -0.13835132
-0.208978 -0.18803345 -0.19463433 -0.22841804 -0.12818 -0.07816274 -0.21517012 -0.16856577
-0.1842052 -0.14645469 -0.17027687 -0.13436781 -0.18950768 -0.29273593 -0.19915529 -0.23207536
-0.20674679 -0.20657845 -0.18152924 -0.2137541 -0.25192782 -0.1719177 -0.15084992 -0.27947664
-0.17652203 -0.23950371 -0.11839593 -0.22544107 -0.15724376 -0.17483318 -0.2098207 -0.2314453
-0.22004573 -0.2945552 -0.16418245 -0.30110607 -0.22842926 -0.24162689 -0.17086858 -0.23300146
-0.10474444 -0.21093425 -0.16197817 -0.17679761 -0.3483829 -0.21937828 -0.110270604 -0.23851514
-0.16649579 -0.025190014 -0.15322728 -0.18391864 -0.13710299 -0.3112475 -0.23018545 -0.17407954
-0.24323499 -0.16402334 -0.22960323 -0.27886075 -0.20258762 -0.18129261 -0.18325965 -0.19246897
-0.14643034 -0.16824654 -0.28416556 -0.16182548 -0.1741137 -0.18141879 -0.14802732 -0.19552152
-0.14422177 -0.29852763 -0.15103906 -0.20538235 -0.21503867 -0.2187465 -0.22297946 -0.24077854
-0.18850738 -0.20656444 -0.14571019 -0.3122699 -0.17727323 -0.20350142 -0.15652809 -0.3313348
-0.18205345 -0.11519446 -0.26860994 -0.12957722 -0.14319125 -0.19017111 -0.2539845 -0.32403976
-0.18734524 -0.23795013 -0.103372306 -0.19350398 -0.1565131 -0.17039794 -0.20901886 -0.18295662
