training/pretrained_model/current_model_1400.pth (torch_old, 349474 bytes, 25 tensors)

weight f4 [32, 1, 2, 2]
00000000: 6ca8 febe d0f6 bd3e ff17 adbf 0700 b1bf
00000010: ea65 153f ab8b 0cbf 2bd7 ae3d 9af1 0f3e
00000020: bdc7 cbbe 9586 a0bd 7fca 2abe 957b ec3e
00000030: 3b19 d13e 03d2 70bf 97f4 30bf 5055 92c0
00000040: e7f1 8cbe bd14 90be 26d3 8dbc 9955 1fbd
00000050: 7a9f cbbe 4d0c fbbe e53e a13e 8651 80be
00000060: e233 703e 3322 37be b1b8 1d3e f0fe f83e
00000070: 597c 26bf 5fd6 0f3f d10d f0bf 226b 4b3f
00000080: 55dc 8b3e e358 073f 3afc dabe cbc4 993c
00000090: 5bb0 99be dded 86bf 0a6b 6abf c4ee 40c0
000000a0: a27a 093f c26d 1f3f 1e9a ed3e bea6 173f
000000b0: 19c3 943e 912a f93e 9485 b7be 3003 c43f
000000c0: 5b84 fbbe b79e 8abe 4ace 933e 039d 8bbc
000000d0: 0e40 6b3f f271 293e d733 56bf 6185 42bf
000000e0: d904 f0bd 0314 afbe 319d d83e 51eb cc3c
000000f0: 50a8 7b3e 4f8d 26bf 8f31 09bf 1bea 4f3e
00000100: 2eef d13e 8cc1 9b3f 175a 82bf 49a9 0c3e
00000110: 18fb 1abe 17f7 023f 64a0 94bf 136c 48bd
00000120: b878 133f f7fa 5b3f 1d95 133f dd9a 593f
00000130: 67b7 903e 9f6d 7f3e d055 b43d 1b08 5b3c
00000140: 0de9 2bbe 7f52 043f e3f8 9c3e fe9e 0c3f
00000150: 00f2 2d3f 30b5 e83e 131d dc3e abdb 0c3f
00000160: edd5 abbe 5d63 073d 9506 c33e 45e9 cdbe
00000170: c7a9 973e 378e bc3e d800 e23e 595f 0140
00000180: 7c9f e0be bb60 08bd d995 57bf 6b77 2dbe
00000190: a579 583f 75d4 f2be 52fd 8b3f 0291 00bf
000001a0: 01d8 4d3f f833 893f 1ea1 0cbf 1c7e 6d3f
000001b0: 1223 1f3f 0417 5d3f 4ba6 263f b39a 4d3f
000001c0: ecb2 a03e 49d6 ab3e 1453 7a3e 2fbf bb3e
000001d0: ec6f 153f 11ef a43e a0f5 0d3f 40f6 393f
000001e0: 1a56 0dbe 12ac 823d d706 a0bf 061b 71bf
000001f0: ac2e c63e 5b25 4c3f 1e95 863f 53bc 053f
-0.4973787 0.37102365 -1.3522948 -1.3828133 0.58358634 -0.54900616 0.08537134 0.14057007
-0.39800826 -0.078381695 -0.16678809 0.46188036 0.40839562 -0.9407045 -0.69123214 -4.572914
-0.27528307 -0.28140822 -0.017312597 -0.03889999 -0.39770108 -0.49032822 0.31493297 -0.25062197
0.23457292 -0.1788414 0.15402485 0.48632002 -0.6503349 0.5618648 -1.8754216 0.79460347
0.27316537 0.52870005 -0.4277056 0.018770596 -0.3001736 -1.054134 -0.9156958 -3.014573
0.5370275 0.6227685 0.46406645 0.59238803 0.29055098 0.48665288 -0.358441 1.5313473
-0.49124417 -0.27074215 0.28868324 -0.017042642 0.91894615 0.16547373 -0.8367285 -0.7598477
-0.117196746 -0.34194955 0.42307428 0.025014551 0.24575925 -0.6505937 -0.53591245 0.20304148
0.41002792 1.2168441 -1.0183743 0.13736452 -0.15134847 0.5115828 -1.1611447 -0.048931193
0.5760608 0.85929817 0.57649404 0.8500193 0.28264925 0.24944161 0.0880543 0.013368632
-0.1678812 0.5168838 0.30658635 0.549301 0.6794739 0.45450735 0.42990932 0.55022687
-0.3356165 0.033053745 0.3809096 -0.40217033 0.29621717 0.3682725 0.4414127 2.0214446
-0.43871677 -0.033295374 -0.84213024 -0.16940086 0.84560615 -0.47427717 1.0936682 -0.50221264
0.8040772 1.0718985 -0.54933345 0.9277055 0.6216289 0.86363244 0.6509749 0.8031418
0.31386507 0.33561924 0.24445754 0.366693 0.58373904 0.32213643 0.5545292 0.7264137
-0.13802376 0.06380476 -1.2502087 -0.9418186 0.38707483 0.797445 1.0514257 0.52240485

bias f4 [32]
00000000: 1756 3abd cf53 d43e 01c5 d53d cbfb 9d3e
00000010: 3d4c dd3e c3ae bb3e 8890 7c3e 2028 d2be
00000020: a384 c03d b39e 87be 4c36 d1be 1dd0 c3be
00000030: 18d2 c63e 8a29 573e 449c abbe 6c02 acbe
00000040: 5130 c73d 11b4 483e 028a c4bd c01a a83e
00000050: b568 483e a714 b23d 9037 1ebe 88be e6be
00000060: 5de5 78bd c48a 323e 0780 973e a70a e23e
00000070: 94da 0b3e bfff b4be d3ac 963d 5f88 263e
-0.045492258 0.4147019 0.10437966 0.30856165 0.43222228 0.3665677 0.2466451 -0.41046238
0.094002984 -0.26488265 -0.40861738 -0.38244715 0.38832164 0.2101194 -0.3351766 -0.33595598
0.097260125 0.1959994 -0.095966354 0.3283291 0.19571193 0.08695345 -0.15450883 -0.4506724
-0.060765613 0.17435747 0.29589865 0.44148752 0.136576 -0.3535137 0.07357182 0.16262959

weight f4 [32]
00000000: 47c7 803d 69be 263d c211 923f 1c80 a43f
00000010: c72b 413e 4176 1f3d 73da 40ba e667 ae3f
00000020: 5852 213d e148 0340 fc83 293f a2ff 493d
00000030: 6753 03ba 551a 613f 8761 79bc 271e 473d
00000040: 7b3d 2a3f 3a0d 78ba f178 1e3f e8b1 7d3c
00000050: 93d5 dd3c 6481 3b3d a8a8 71ba 9d29 573e
00000060: 1698 bd3e d0ab 033f 1a2c 143d f893 8e3f
00000070: 4af6 e2b9 6077 d53f bccd 203f a820 193f
0.06288009 0.040708933 1.1411669 1.2851596 0.18864356 0.038931135 -0.000735677 1.3625457
0.03938517 2.0513232 0.6621702 0.049316056 -0.00050096813 0.87930804 -0.015221006 0.04861274
0.6650006 -0.000946242 0.6190329 0.015484311 0.02707938 0.045777693 -0.0009218552 0.21011968
0.37030095 0.5143404 0.03617487 1.1138906 -0.0004328958 1.6677055 0.62813926 0.59815454

bias f4 [32]
00000000: 4f01 36bf fa3d b5be 7e11 03bf a479 163e
00000010: 8c9c 97be 9541 a2be 75b3 a7bd 7ec1 ecbd
00000020: 2c32 04bf b9d7 e8be 8a09 a9bd ad33 d8be
00000030: 7463 33bc f2b1 4ebf c0ea 0bbe 1201 e9be
00000040: 85a9 433e 758d 1fbe 8d64 543c 2432 21be
00000050: abc7 65be 6891 c1be e689 c3bd cabf a6be
00000060: beef c3be 10b4 3f3c 1118 a9be 880d db3e
00000070: 03c5 f2bd 4a38 f1be c3f8 89bd f355 133e
-0.71095747 -0.35398847 -0.51198566 0.1469484 -0.29611623 -0.3169066 -0.081885256 -0.11560343
-0.51639056 -0.45477083 -0.082537726 -0.42226925 -0.010949004 -0.80740273 -0.13663769 -0.4550863
0.19107635 -0.15581305 0.012963426 -0.15741783 -0.22439449 -0.3780625 -0.095477864 -0.32568198
-0.38268846 0.011700645 -0.33026174 0.4278376 -0.11853983 -0.47113258 -0.06736901 0.14388256

running_mean f4 [32]
00000000: c4dd 1ac3 29c8 f042 1138 9ec2 fd3b 38c2
00000010: 6346 82c2 0f28 bdc2 8593 7442 e552 0fc3
00000020: 2af3 7642 92c8 29c3 5149 1443 4831 c842
00000030: c962 d3c2 8e38 2943 7890 c0c1 73f0 0f42
00000040: 0470 c042 6124 2fc2 af1a 2943 2b05 8742
00000050: 5620 08c1 a781 2e43 f1d8 94c2 4121 f842
00000060: 4172 e2c2 b96f 3443 81e4 4c43 b373 3343
00000070: 05c9 ac42 0921 1d43 8ad1 8dc2 6b15 0043
-154.86627 120.39094 -79.109505 -46.058582 -65.137474 -94.57824 61.144062 -143.3238
61.737465 -169.78348 148.28639 100.09625 -105.69294 169.22092 -24.070541 35.984814
96.21878 -43.785526 169.10423 67.51009 -8.5078945 174.50645 -74.42371 124.06495
-113.22315 180.43642 204.8926 179.45195 86.39262 157.12904 -70.909256 128.08366

running_var f4 [32]
00000000: a2ec 4048 ce58 7548 0e2e e247 6693 4148
00000010: 5550 5b47 795f e847 80cd 2047 e48f a048
00000020: 4f1c 6347 6add e747 69e9 5548 6351 8e47
00000030: d470 2d48 c217 1849 c48e 3c46 1e92 4147
00000040: 5e28 0a48 03e2 cb46 97c8 7a48 5467 6647
00000050: 00ba c446 0c26 a748 5287 a347 456d 9e47
00000060: d822 0d48 7b7f 0149 ff7d ef48 8b6c 9048
00000070: b40a 9147 f518 7848 0162 c846 96fb f247
197554.53 251235.22 115804.11 198221.6 56144.332 118974.945 41165.5 328831.12
58140.31 118714.83 219045.64 72866.77 177603.31 622972.1 12067.691 49554.117
141473.47 26097.006 256802.36 58983.33 25181.0 342320.38 83726.64 81114.54
144523.38 530423.7 490479.97 295780.34 74261.41 254051.83 25649.002 124407.17

weight f4 [64, 32, 2, 2]
00000000: 96b4 2fbe 2429 30bc 6120 15be d99e 98bd
00000010: 1e99 6dbd f691 96bc e025 20ba 4f13 a53c
00000020: 480a ffbd d80a 92bd a2f9 3bbd 22b0 e4bd
00000030: 770f 97bd 4b26 93bd 759c 3dbe d8ad 1cbe
00000040: 3564 cabd 2ef0 31be 4074 33bc dfaf c3bd
00000050: 2df8 82bd ecc0 4ebd 6021 dbbd 0ed7 d9bd
00000060: 2b27 95bc 6022 4c3d 6e17 1d3d 2924 903d
00000070: f16e 1dbe 0394 3bbd 4d8f 3cbe 908f 47bd
00000080: 5638 1dbd e9fd 03bc 1df2 3bbd 1d13 64bc
00000090: b3fa b9bd 2e4d 64bd 59a7 5cbe 2afc 90bd
000000a0: 0be0 2abc 6ee2 1ebe dd48 4fbd 2936 8f3d
000000b0: ad84 adbd 7d62 a3bd 8f6b cbbd 39ab 743d
000000c0: 4149 e8bc 6a6b 3fbd 2ca7 123a 38e8 88bd
000000d0: 6de1 0abd 1b3d e4bd da24 28bd da3b cbbd
000000e0: 967c 333d a488 1f3d 7d8a 0cbc a830 873d
000000f0: c5c6 903b d34d c7bb d04c cfbd a96b a23d
00000100: ef6b 2bbe 49f2 21bd 2896 e9bd f5ab 00bd
00000110: ccf0 0cbe c28c d63c c5b8 b4bc fda4 d1bd
00000120: aa55 673c 28b4 f1bd 4cd6 6dbc 25db 113d
00000130: 4e2a 8e3b 585c dc3c b6ff 303c 36ab 3fbd
00000140: 2bb4 04be 32e2 a03c e85d d7bd 4f84 e4bd
00000150: 2301 68bd 52e1 7ebc e9df 9d3c 76b5 05be
00000160: 7ca5 7bbc f0da fd3c 9e37 46bd 377f 8c3d
00000170: 6387 5dbc d7ae 36be a288 33bb aacf 433d
00000180: a78d 1bbe 811f 863b a3ca 9cbd 94c1 f6bd
00000190: fe77 25bd 2c0b a3bd 07d6 84bd 4fb0 c3bd
000001a0: 313e a93c 20d9 173d c034 ffbd bfd4 17be
000001b0: 9df1 3ebd f54f 9bbc e8e9 18be 8e17 88bd
000001c0: e4bc ac3d fc9b a03c 31e8 a53d 7d27 b4bd
000001d0: debb 82bb 387c babd 2a83 a03c 86b3 353d
000001e0: 2f3c dcbd 59ba 413d d2d3 63be 5758 2fbe
000001f0: bbea c3bd 6e5b 56bd 6f7e c4bd a047 a03c
00000200: c1ea 14be 2ad2 bfbd e2a0 b5bd 5db8 4bbe
00000210: 293a 61bd 2b78 493d 5dbe 483c 80da b93c
00000220: f13f 0fbd 41c0 8abd e40e c8bd e8f3 113d
00000230: ae4f 95bd 5ecf 00be d025 f1bd 1633 82bc
00000240: 1ffe e33b 564a f2bd fced 5fbc 1498 87bc
00000250: 214a a3bd 1c59 063d 564b 483c 3194 95bd
00000260: eadc 98bd 001a 84bd 1a90 6f3d eac6 8cbd
00000270: 2096 5fbd 890a b6bd ef39 a0bd 5ff5 38be
00000280: 9462 f3bc f41b 92bc e85d eb3b d887 38bc
00000290: 9f91 8bbd 1aa2 14be c060 acbd 62dd 30be
000002a0: 4984 2a3d 2c86 2a3c 8125 9dbc a37b 91bc
000002b0: bc56 e8bd 8908 e1bc e0ca a13c 5696 673d
000002c0: d76c 123c 64bd 5fbd b178 d8bc 36cd 93bc
000002d0: 577d ca3b 3ca6 76bd 5035 d5bd da59 483c
000002e0: 6056 a83d 68b8 c93c f292 3fbc 6bb0 49bd
000002f0: a8a6 833c 70a1 b2bc 0682 a2bd caaa 0bbd
00000300: 9d0e 94bb 6f7d aa3c c9ad 0abc 142b 863c
00000310: 11f5 0fbe f703 93bd 539b 7abd 9e8a 11be
00000320: 16e5 4b3d fc74 dfbd c178 87bd 48d8 a23c
00000330: da30 423d 8322 b0bd 200c c4bb 4a17 40bd
00000340: 00e8 38bb bb49 523c d932 0bbb 129e 72bd
00000350: c945 76bd c1c2 3d3b 4283 98bd c413 b8bc
00000360: e638 3ebd f21e 81bd 4dee cbbc 9fbf 9ebc
00000370: 4b4f d2bd 7e45 ccbd 103e e5bd 692a a5bd
00000380: 4472 c5bd 09cb acbd 9443 02be e2cf 8ebd
00000390: a8a1 efbd 6297 d6bd 805c ebbd 99c0 98bd
000003a0: d5df 42bd 5df5 813d 41de 7fbc f012 cf3c
000003b0: 7dd8 5a3d 144f e2bc f9fb cd3c bced f13c
000003c0: 1c6a 11bd 178f 203d 883a 8dbd 2f24 843d
000003d0: ae4d 75bd d519 93bc 7312 97bd 1021 f3bb
000003e0: 8957 9cbd 7f75 23bd cdb5 ebbc ddc5 a6bd
000003f0: d680 c5bd 982c c3bd 7d9c 993c 7221 a5bd
-0.17158732 -0.010751996 -0.14563133 -0.07452173 -0.058007352 -0.018380146 -0.00061091594 0.020150809
-0.12453133 -0.071309745 -0.045892365 -0.11166407 -0.073759966 -0.07185038 -0.18516715 -0.15300691
-0.09882394 -0.17376778 -0.010953009 -0.09555029 -0.06394992 -0.050476953 -0.10699725 -0.106367216
-0.018207153 0.04983747 0.038352422 0.07038147 -0.15374352 -0.04579545 -0.1841404 -0.048720896
-0.038383804 -0.008056142 -0.045885194 -0.013920573 -0.0908102 -0.055737667 -0.21548213 -0.070793465
-0.010429393 -0.15516064 -0.050606597 0.06992752 -0.084725715 -0.079777695 -0.099326245 0.059733603
-0.028355243 -0.046733297 0.00055943686 -0.06684917 -0.03390639 -0.111444674 -0.04105077 -0.09923525
0.043819986 0.03894867 -0.00857794 0.06601077 0.0044182264 -0.0060822754 -0.10122073 0.07930691
-0.16740392 -0.0395377 -0.11405593 -0.03141399 -0.13763732 0.026190165 -0.022060761 -0.10236547
0.014119545 -0.1180194 -0.014516424 0.035609383 0.004338539 0.026899502 0.010803154 -0.04679414
-0.12959354 0.019639108 -0.10515958 -0.11158048 -0.05664171 -0.01555665 0.019271808 -0.13057503
-0.015359279 0.030988187 -0.048392884 0.06860202 -0.013521048 -0.17840134 -0.0027394672 0.047805466
-0.15190755 0.004093111 -0.076558374 -0.12048641 -0.040397637 -0.07961115 -0.06486135 -0.095551126
0.020659538 0.0370723 -0.12461233 -0.1482725 -0.04661714 -0.018959025 -0.14932978 -0.06645118
0.084344655 0.01960563 0.081009276 -0.08796594 -0.0039896807 -0.09105724 0.019593794 0.04436066
-0.107536666 0.047296856 -0.22248772 -0.17123543 -0.09566256 -0.052333288 -0.09594428 0.019565403
-0.14542677 -0.093662575 -0.088685766 -0.19894548 -0.054987106 0.049186867 0.012252417 0.022687197
-0.03497309 -0.06774951 -0.09768465 0.035632998 -0.07290588 -0.12579104 -0.1177479 -0.0158935
0.006957784 -0.11830585 -0.01366758 -0.016552009 -0.07973123 0.032799825 0.012224993 -0.07303656
-0.07464011 -0.064502716 0.058487035 -0.06873877 -0.05458653 -0.08888728 -0.0782355 -0.18062352
-0.029710092 -0.017835595 0.0071828254 -0.011262856 -0.068148844 -0.14514962 -0.08416891 -0.17271951
0.041630063 0.010407966 -0.019182922 -0.01775915 -0.11344668 -0.02746989 0.019750059 0.056539856
0.008937082 -0.054623976 -0.026424738 -0.018042188 0.0061794925 -0.060217127 -0.10410559 0.0122284535
0.082196 0.024624065 -0.011692749 -0.04924051 0.016070679 -0.021805495 -0.07934956 -0.034098424
-0.0045183436 0.020811765 -0.008464285 0.016377963 -0.14058329 -0.071784906 -0.061183285 -0.14213035
0.04977902 -0.10910985 -0.06614829 0.019878522 0.04740987 -0.086003326 -0.0059828907 -0.04689721
-0.0028214455 0.0128349615 -0.0021240024 -0.05923278 -0.060125146 0.0028955194 -0.074469104 -0.022470362
-0.04644098 -0.063047305 -0.024893904 -0.019378481 -0.1026903 -0.09974192 -0.11193478 -0.0806473
-0.09640935 -0.084371634 -0.12721092 -0.06973244 -0.11700755 -0.10478093 -0.11492252 -0.0745861
-0.047576744 0.063456275 -0.015616954 0.025277585 0.053429116 -0.027625598 0.025144564 0.029532306
-0.035501584 0.03919896 -0.068959296 0.06452214 -0.059888534 -0.017956654 -0.07376566 -0.007419713
-0.076338835 -0.039906975 -0.028773213 -0.08143208 -0.09643714 -0.0952999 0.018751377 -0.0806302

bias f4 [64]
00000000: 6ee8 80be 37e0 b3bd bc7f 50be 91ea 07be
00000010: 3002 64be 9987 13be 81e3 bdbe 8234 b2be
00000020: fb86 86bd 1889 0cbe f2fc 51be ca7d 43be
00000030: 59e3 74be bac6 a9bd ed32 92bd 24a5 773e
00000040: c8a0 94bd 5b31 d6bd 820d 35be f00c f0bd
00000050: 52e8 48bd f051 cebd 026d 00be 7f97 56be
00000060: bde0 b63e 8773 13be e5d2 3cbd 5c09 65be
00000070: bf4a 37be 8470 98be 5c5b 57be 13fa 6dbe
00000080: 6c0b a7be e00f 84bd 2c40 58be c8c0 ecbd
00000090: f0a7 45be 4348 49be 1b21 a0bd aee5 13bc
000000a0: 2fe7 6fbe 0298 21be 4006 46be 9257 cabd
000000b0: 3884 50bd 919f 9ebe a88f bcbd 9172 1a3f
000000c0: 88fc 94be 87ce 2dbe 2038 cbbd 5281 f9bd
000000d0: 5abf 48be 68bd 7fbe b003 11be 42cd 2ebe
000000e0: 68e1 04be 61a3 6bbe dbd0 46be e976 00bf
000000f0: f84d fbbd 14f7 4abd 7538 9dbe bdd9 9ebd
-0.2517733 -0.08783 -0.20361227 -0.13273074 -0.2226646 -0.14407195 -0.37087634 -0.34805685
-0.06568714 -0.13724172 -0.20506647 -0.19090953 -0.23914851 -0.08289857 -0.071386196 0.2418409
-0.07257229 -0.104586326 -0.17680934 -0.11721218 -0.049049683 -0.10074222 -0.12541583 -0.20956229
0.35718337 -0.14399539 -0.046099562 -0.22366852 -0.17899607 -0.29773343 -0.21030945 -0.23239927
-0.32625902 -0.064483404 -0.2111823 -0.115602076 -0.19302344 -0.19656472 -0.07818814 -0.009026928
-0.23428033 -0.15780643 -0.19338322 -0.09879984 -0.050907344 -0.30981115 -0.09207088 0.60331064
-0.29098916 -0.16973315 -0.09922814 -0.12182869 -0.19604245 -0.24974597 -0.14161563 -0.17070487
-0.1297661 -0.23011543 -0.1941561 -0.5018144 -0.12270731 -0.04955204 -0.30707136 -0.07756374

weight f4 [64]
00000000: 28f6 5c3f 5d4f 353f 0415 063e 04ed 6b3e
00000010: 149b 083e c798 773f b9a8 183f 72e0 423f
00000020: 385d 503e 6234 3b3f 5bb3 113f 8dd0 3e3f
00000030: bacf ca3e 14cf 8e3e 5fbd 793f 3481 c33e
00000040: 90d8 fa3d dde2 2e3f f067 5f3e 343b 103e
00000050: 0674 ac3e b033 a13d bf9b 3c3f c228 3f3f
00000060: bc61 c63e dc04 123f ea0f 563f b0ae 3b3f
00000070: 92e1 7a3f 38f0 ab3e 0042 d63e ba37 103f
00000080: 5413 f23e 424b 233f 80dc 9c3c e798 123f
00000090: 0c7f 513f 8915 1e3f a060 a53e f450 143f
000000a0: a315 183f 7c49 613e 0022 4c3d 90ca 723e
000000b0: 70a5 dc3e c6ad 073f 9b44 5a3f ad5d 103f
000000c0: 7a9c e73e 1310 2e3f 4408 d63e 6860 663f
000000d0: 08c8 343f 78c7 fb3e b88e 353e 3c9b 0f3f
000000e0: d6c5 b33e de8b f63e 7e8e 5c3f 50e2 663f
000000f0: a81b ed3d 4bc7 5d3f bdd3 4e3f 8876 6b3e
0.86313105 0.70824224 0.13093954 0.23039633 0.13340408 0.96717495 0.5963245 0.76123726
0.2034806 0.73126805 0.569143 0.74536973 0.39611608 0.27892363 0.9755458 0.38184512
0.12248337 0.68314916 0.21816993 0.14085084 0.3368227 0.07871187 0.7367515 0.74671566
0.3874644 0.57038665 0.8361803 0.73313427 0.98000443 0.3358171 0.4184723 0.5633503
0.4728037 0.6378671 0.019148111 0.5726456 0.81834483 0.6175161 0.32300282 0.57936025
0.59408015 0.22000688 0.049837112 0.23710084 0.4309497 0.5299953 0.85260934 0.5639294
0.4523657 0.6799328 0.4180318 0.89990854 0.70617723 0.4917562 0.17730224 0.56096244
0.35111874 0.48153585 0.86154926 0.90189075 0.11577541 0.8663222 0.80791837 0.22994435

bias f4 [64]
00000000: 0000 0000 0000 0000 0000 0000 0000 0000
00000010: 0000 0000 0000 0000 0000 0000 0000 0000
00000020: 0000 0000 0000 0000 0000 0000 0000 0000
00000030: 0000 0000 0000 0000 0000 0000 0000 0000
00000040: 0000 0000 0000 0000 0000 0000 0000 0000
00000050: 0000 0000 0000 0000 0000 0000 0000 0000
00000060: 0000 0000 0000 0000 0000 0000 0000 0000
00000070: 0000 0000 0000 0000 0000 0000 0000 0000
00000080: 0000 0000 0000 0000 0000 0000 0000 0000
00000090: 0000 0000 0000 0000 0000 0000 0000 0000
000000a0: 0000 0000 0000 0000 0000 0000 0000 0000
000000b0: 0000 0000 0000 0000 0000 0000 0000 0000
000000c0: 0000 0000 0000 0000 0000 0000 0000 0000
000000d0: 0000 0000 0000 0000 0000 0000 0000 0000
000000e0: 0000 0000 0000 0000 0000 0000 0000 0000
000000f0: 0000 0000 0000 0000 0000 0000 0000 0000
0.0 0.0 0.0 0.0 0.0 0.0 0.0 0.0
0.0 0.0 0.0 0.0 0.0 0.0 0.0 0.0
0.0 0.0 0.0 0.0 0.0 0.0 0.0 0.0
0.0 0.0 0.0 0.0 0.0 0.0 0.0 0.0
0.0 0.0 0.0 0.0 0.0 0.0 0.0 0.0
0.0 0.0 0.0 0.0 0.0 0.0 0.0 0.0
0.0 0.0 0.0 0.0 0.0 0.0 0.0 0.0
0.0 0.0 0.0 0.0 0.0 0.0 0.0 0.0

running_mean f4 [64]
00000000: 0000 0000 0000 0000 0000 0000 0000 0000
00000010: 0000 0000 0000 0000 0000 0000 0000 0000
00000020: 0000 0000 0000 0000 0000 0000 0000 0000
00000030: 0000 0000 0000 0000 0000 0000 0000 0000
00000040: 0000 0000 0000 0000 0000 0000 0000 0000
00000050: 0000 0000 0000 0000 0000 0000 0000 0000
00000060: 0000 0000 0000 0000 0000 0000 0000 0000
00000070: 0000 0000 0000 0000 0000 0000 0000 0000
00000080: 0000 0000 0000 0000 0000 0000 0000 0000
00000090: 0000 0000 0000 0000 0000 0000 0000 0000
000000a0: 0000 0000 0000 0000 0000 0000 0000 0000
000000b0: 0000 0000 0000 0000 0000 0000 0000 0000
000000c0: 0000 0000 0000 0000 0000 0000 0000 0000
000000d0: 0000 0000 0000 0000 0000 0000 0000 0000
000000e0: 0000 0000 0000 0000 0000 0000 0000 0000
000000f0: 0000 0000 0000 0000 0000 0000 0000 0000
0.0 0.0 0.0 0.0 0.0 0.0 0.0 0.0
0.0 0.0 0.0 0.0 0.0 0.0 0.0 0.0
0.0 0.0 0.0 0.0 0.0 0.0 0.0 0.0
0.0 0.0 0.0 0.0 0.0 0.0 0.0 0.0
0.0 0.0 0.0 0.0 0.0 0.0 0.0 0.0
0.0 0.0 0.0 0.0 0.0 0.0 0.0 0.0
0.0 0.0 0.0 0.0 0.0 0.0 0.0 0.0
0.0 0.0 0.0 0.0 0.0 0.0 0.0 0.0

running_var f4 [64]
00000000: 0000 803f 0000 803f 0000 803f 0000 803f
00000010: 0000 803f 0000 803f 0000 803f 0000 803f
00000020: 0000 803f 0000 803f 0000 803f 0000 803f
00000030: 0000 803f 0000 803f 0000 803f 0000 803f
00000040: 0000 803f 0000 803f 0000 803f 0000 803f
00000050: 0000 803f 0000 803f 0000 803f 0000 803f
00000060: 0000 803f 0000 803f 0000 803f 0000 803f
00000070: 0000 803f 0000 803f 0000 803f 0000 803f
00000080: 0000 803f 0000 803f 0000 803f 0000 803f
00000090: 0000 803f 0000 803f 0000 803f 0000 803f
000000a0: 0000 803f 0000 803f 0000 803f 0000 803f
000000b0: 0000 803f 0000 803f 0000 803f 0000 803f
000000c0: 0000 803f 0000 803f 0000 803f 0000 803f
000000d0: 0000 803f 0000 803f 0000 803f 0000 803f
000000e0: 0000 803f 0000 803f 0000 803f 0000 803f
000000f0: 0000 803f 0000 803f 0000 803f 0000 803f
1.0 1.0 1.0 1.0 1.0 1.0 1.0 1.0
1.0 1.0 1.0 1.0 1.0 1.0 1.0 1.0
1.0 1.0 1.0 1.0 1.0 1.0 1.0 1.0
1.0 1.0 1.0 1.0 1.0 1.0 1.0 1.0
1.0 1.0 1.0 1.0 1.0 1.0 1.0 1.0
1.0 1.0 1.0 1.0 1.0 1.0 1.0 1.0
1.0 1.0 1.0 1.0 1.0 1.0 1.0 1.0
1.0 1.0 1.0 1.0 1.0 1.0 1.0 1.0

weight f4 [64, 64, 1, 1]
00000000: 8d84 e4bb 98d5 8bbd 3d0e 8d3d 3d16 0a3d
00000010: 04ea 5fbd fa92 b53d bd49 2ebf 56ea 8b3c
00000020: c5fb 42bc 137a f5bd d2c7 b9bd cdf5 39bd
00000030: e42b cd3c 48de 9cbe 1171 0d3b d196 763d
00000040: 0c8b a03d d133 8c39 6597 22be 5e84 433d
00000050: e58a b93c 4cb1 1d3c 934e 6dbd a1c8 263e
00000060: a1f7 acbf 1b41 013d 95b1 2d3d defb 80be
00000070: 4459 cfbd 127c 413f 095b f43c 80df fd3e
00000080: 713a 1b3e b7ed 7e3d ddca 15be 38e9 ddbd
00000090: faa4 063e 1ad9 cfbd 1e01 c93d 49a4 0a3d
000000a0: d48b 40bf c476 6b3d 35f9 433e 1c1b 8abd
000000b0: 2155 bebd e092 16bf 965f f73c a2c9 22bf
000000c0: d802 863d f6bf b8bd 4d24 7bbd 7696 5ebd
000000d0: b8be 8d3e 9705 7bbd 6016 38bd be0e db3d
000000e0: 5e84 8fbd 705a 96bd f94a 38bd 2077 8a3d
000000f0: 5ccb 72bd 9ce5 eebd 44b5 90bd c00b 503d
00000100: c5bd f6bd babc 99bd 45bf 7fbd 5a40 20bd
00000110: cdca 803d 9f53 afbd d268 843d 7be4 3a3d
00000120: eb4f 533b 765a 99bd e6df 92bd 16df e43d
00000130: 3b93 84bc 25e9 283c 8571 06be 5a80 633d
00000140: bd9a 8b3d 2828 983d 18ee 083a 5312 15bc
00000150: 37f4 f0bd 1e01 473c 38f2 08be 81d7 95be
00000160: d5b4 8bbe 641f b1bb 4673 23bc 1292 88bd
00000170: 1f97 d23c 565b cfbb 076b 5e3d 538f c6bd
00000180: 2ed9 f73d fec9 c73d 861c 87bd c4e8 babd
00000190: 5f80 02bd 90ef 9bbd c87f 8a3d 4372 51be
000001a0: 39f2 2a3c 13a9 503d 578a 6b3d 46da 4fbd
000001b0: b2ad c0bd 985d 863c b236 023d 2116 0dbe
000001c0: 8346 7abd 4016 c6bd 9519 ac3d 7b8a 1b3d
000001d0: bbcf 153d b7f5 babd 9fa4 8abd 5399 ecbc
000001e0: ba0a 483c 45b3 8a3d 00dc 78bd 1598 3cbd
000001f0: 791b 553d 9c1e 003e 039a 94be d9e5 afbc
00000200: 1130 44be c825 d7bd db11 a1bd dfb0 7b3d
00000210: c5dd dc3c d152 84bd 59e4 693d 1dbf 7f3d
00000220: 793f c6bd a9b8 45bb f853 123d ce82 863d
00000230: c433 25be e56b cf3c da47 c2bd 6b41 753c
00000240: d882 363d 308b 503c 8ade 9f3d 6748 613d
00000250: 0555 b63d c864 7b3d 6310 853d 92cf aabd
00000260: d1d9 a2bd 6d68 c2bc 8355 153d 75df 983c
00000270: e455 a9bb 8db9 e5bd 128a 50bd 0d73 96bd
00000280: 77c9 9fbd f133 523c c8a0 d1bd d5b1 99bd
00000290: fe72 7bbd 40f9 24bd a101 b2bb 10d5 d7bc
000002a0: c435 b8bd 6869 f7bd 9518 573d fec2 00bd
000002b0: c34d 8abc 345f 81bd a3a8 7bbc a193 04be
000002c0: 17cc 93bd e45e e3bd 7f3e 703d 7f01 893d
000002d0: 8048 633c 4140 2039 efdb 67bd 6173 523d
000002e0: 28b3 96bd e1e1 8e3d d8b6 04be 610c 26bd
000002f0: 91a2 f6bc 93e1 35b8 b891 13bd ae6d 04bc
00000300: 7aac ce3c c4d9 5e3d 7c63 173e e40e 3a3d
00000310: 90cd 7dbd a1c0 283d 8b2c b33d e320 82bd
00000320: 2066 073d de0b 97bd 157d 953c 8ead cebd
00000330: c38f 243c 6190 72be b356 cbbc 4416 abbd
00000340: ba94 92bd d590 1d3d 4a83 493c 7ade f1bd
00000350: 2be9 853d 540e a6bd 39be 20bc 8333 cc3d
00000360: 79ea 05be 4c00 5b3d f588 913d 1697 503d
00000370: 4567 b0bd ec02 983c 4a9d f93c 22fd 78bd
00000380: 5bde 7e3d 9c40 1d3d 1916 13bd 3780 0d3c
00000390: 068d 4abc e53d c6bd ce58 063d 51ee 43bb
000003a0: cd05 a7bd a4a3 d9bd 66ff 12bb 8dbd 383d
000003b0: af4a 9a3d a1bf 93be 502a fa3d badc 27be
000003c0: 3b5a 983d 054a d13c a7ae 443b c2d7 0e3d
000003d0: a4db 4cbd b04c 3e3d 62f3 37be 2a0f b73c
000003e0: cec5 c93d b617 da3b c6d2 2abd ee1e efbd
000003f0: 4324 d93c 53ab 00bd 005b d0bd 6e2a 063d
-0.006973809 -0.06827849 0.06887481 0.033712614 -0.054666534 0.08865924 -0.68081266 0.017079514
-0.011900847 -0.119861744 -0.09071316 -0.04540043 0.025045343 -0.30638337 0.0021582285 0.060202423
0.07839021 0.00026741487 -0.15878065 0.047733657 0.022649238 0.00962479 -0.057936262 0.16287471
-1.351307 0.03155623 0.042405684 -0.2519216 -0.10124448 0.7557994 0.029828565 0.4958458
0.15159012 0.06223842 -0.14628167 -0.108354986 0.13148871 -0.10148831 0.09814666 0.03384808
-0.7521336 0.05748631 0.19138034 -0.06743452 -0.09293581 -0.58817863 0.030196946 -0.6358892
0.06543511 -0.09020989 -0.061313916 -0.05434271 0.2768457 -0.061284628 -0.044943213 0.10696171
-0.07007669 -0.07341468 -0.044993374 0.067610025 -0.05927597 -0.11664888 -0.07065824 0.050792456
-0.120479144 -0.075067 -0.06243827 -0.03912387 0.06288681 -0.08560871 0.064653054 0.045628052
0.003224368 -0.07487957 -0.071716115 0.11175363 -0.016183486 0.010309492 -0.13129242 0.055542327
0.06816623 0.07429534 0.0005223467 -0.009098607 -0.1176533 0.012146262 -0.13373649 -0.2926598
-0.272864 -0.0054053534 -0.009976214 -0.06668486 0.025706826 -0.0063280268 0.054301288 -0.09695306
0.121019706 0.09755324 -0.06597237 -0.09126428 -0.031860705 -0.07614052 0.067626536 -0.20453744
0.010433727 0.05094249 0.057504978 -0.05074527 -0.0940813 0.01640205 0.031790443 -0.13777973
-0.0611024 -0.096722126 0.08403317 0.037973862 0.03657506 -0.09128898 -0.0676968 -0.028881704
0.012209589 0.06772474 -0.060756683 -0.046043474 0.052028153 0.12511677 -0.29023752 -0.021471905
-0.19158961 -0.10505253 -0.07864734 0.061447974 0.026961217 -0.064611085 0.057102535 0.06243812
-0.09680075 -0.003016988 0.03572461 0.06567918 -0.16133028 0.025320003 -0.09486361 0.01496921
0.044558376 0.012728497 0.07806118 0.05500069 0.08902935 0.06137541 0.06497266 -0.08340372
-0.079517014 -0.023731435 0.036458503 0.01866124 -0.0051677097 -0.11217032 -0.050912924 -0.07346163
-0.07802098 0.012829767 -0.10235745 -0.07504622 -0.061388962 -0.040276766 -0.005432323 -0.026346713
-0.0899463 -0.120806515 0.052513678 -0.03143596 -0.016882783 -0.06316987 -0.01536003 -0.12946941
-0.072166614 -0.11102083 0.05865335 0.066897385 0.013872266 0.00015282726 -0.05660623 0.051379565
-0.0735839 0.06976677 -0.12960374 -0.04053915 -0.030106815 -4.3363845e-05 -0.03602764 -0.00808279
0.025228728 0.054406896 0.14784044 0.045424357 -0.061963618 0.04119933 0.0874873 -0.06353929
0.03305638 -0.0737531 0.01824812 -0.10091697 0.010044041 -0.23687889 -0.024821615 -0.08353856
-0.071572736 0.0384682 0.012299368 -0.11810012 0.06538614 -0.081082016 -0.009810978 0.099707626
-0.13077725 0.05346708 0.071062006 0.050925337 -0.08613447 0.01855608 0.03047051 -0.06078828
0.062223773 0.038391694 -0.035909746 0.008636526 -0.012362724 -0.09679774 0.032799534 -0.0029896686
-0.08155403 -0.10626915 -0.0022430061 0.045102645 0.07533776 -0.2885714 0.12215102 -0.16392794
0.07439085 0.02554799 0.0030011327 0.03487373 -0.050014153 0.046459854 -0.17963937 0.022346098
0.098521814 0.0066556586 -0.041704915 -0.11675821 0.026506549 -0.031413388 -0.10173607 0.032755308

bias f4 [64]
00000000: 8df3 953d fe50 4bbe 6c5e 58be 62ce 9cbe
00000010: 49f4 a7be fa42 4ebe eaac dcbe 2644 9cbe
00000020: c949 82bc 9028 b5be e9f7 3fbe b45f 57bd
00000030: 1530 74be f684 83be 3857 45be e181 c6bd
00000040: 4a76 41be 3d7e 4bbe 5a87 09be 0838 fabd
00000050: 720f acbe eab2 1b3e 497d 87be b64a 8fbe
00000060: c076 10be cc3e 183f 8124 98be 2c51 10be
00000070: d9a0 1abc b82e 8bbe 2720 e9bd a7fc 94be
00000080: e283 65be 572d 42bf 10e2 44be 8863 90be
00000090: 1062 e43e 6d1e 0dbe 3843 37be d409 6ebe
000000a0: 7572 b63d 43d6 6fbb 18cb f6be db24 38be
000000b0: a3af 20be 0c17 94be 0e09 a6be c244 423d
000000c0: fb97 84be e746 90bd 13e7 88be 2473 1abf
000000d0: 497a 5bbe 36fa 99bd 342f 5ebe 5a8d 15be
000000e0: cbea 45bf ec2a 1cbe 4f22 243e f148 46be
000000f0: c254 90be aebe e6be 4ff4 03be 08a8 55be
0.07321844 -0.19855115 -0.21129769 -0.30626208 -0.32803562 -0.20142737 -0.43100673 -0.30520743
-0.015904324 -0.3538251 -0.18746914 -0.052581504 -0.23846467 -0.2568738 -0.19271553 -0.09692741
-0.1889278 -0.19872375 -0.13430539 -0.12217718 -0.33605534 0.15204969 -0.26462772 -0.27986687
-0.141078 0.5947082 -0.2971535 -0.14093465 -0.009437763 -0.2718408 -0.11383086 -0.29099008
-0.2241359 -0.75850433 -0.19226861 -0.28200936 0.44606066 -0.13781138 -0.17896736 -0.23245937
0.0890855 -0.0036596216 -0.48201823 -0.17982809 -0.15692 -0.28923833 -0.32428783 0.047428854
-0.25897202 -0.070447735 -0.26738796 -0.6033194 -0.21433367 -0.07518427 -0.21697694 -0.14604703
-0.7731139 -0.15250748 0.16028713 -0.19363762 -0.28189665 -0.45067352 -0.12886165 -0.2086488

weight f4 [64]
00000000: 90ff b03e 95d2 2e3f 74e2 493e 4176 493f
00000010: c692 5c3f 4cef 473f 9a2d d93e 50d6 a23d
00000020: c217 d83e 2890 633f 303b 1b3f 408d 703d
00000030: a224 d93e f4f5 273e 3c9c 863e f0db e23e
00000040: 3861 913d 961f e83e c7e0 6d3f 29a8 033f
00000050: 16b6 483f 4056 0d3d 5bcc 423f a516 2e3f
00000060: 9348 6c3f a454 2d3f 28a1 933d 40d3 033c
00000070: 9c02 dc3e 927e 773f 1cd6 1e3f 2e33 d03e
00000080: c420 533f 4946 1e3f a96e 053f 5610 023f
00000090: 986f ea3d d41b 373e ec08 ab3e 8857 f93e
000000a0: 640c 253e 821d 413f 5ff1 263f 60d0 943e
000000b0: 8ed7 173f 9ce1 b33e 5717 443f 5aae 323f
000000c0: 043d 663e 66da e13e 69ef 543f 8c87 613f
000000d0: f440 103f eb5f 7f3f 215e 753f b050 f33e
000000e0: db4f 073f 6190 083f 8432 8e3e 834d 6e3f
000000f0: ead4 253f db2f 3d3f 5832 903e 3ca6 153f
0.3456998 0.6829007 0.19715291 0.78696066 0.8616146 0.78099513 0.42417604 0.07951033
0.42205626 0.8889184 0.6063719 0.058728456 0.4241076 0.16402417 0.26291072 0.44308424
0.07098621 0.45336598 0.9292111 0.5142847 0.7840284 0.034506083 0.7609307 0.680033
0.9229824 0.67707276 0.072084725 0.008045971 0.4297074 0.96677506 0.62045455 0.40664047
0.8247187 0.61825997 0.5212198 0.50806177 0.11447066 0.1788171 0.33405244 0.48699594
0.16118008 0.7543565 0.65212053 0.29065228 0.59313285 0.35133064 0.76598114 0.6979729
0.22484213 0.44111937 0.8317781 0.88097453 0.5634911 0.99755734 0.95846754 0.47522497
0.52856225 0.53345305 0.27772915 0.93087023 0.64778006 0.73901147 0.2816341 0.5845678

bias f4 [64]
00000000: 0000 0000 0000 0000 0000 0000 0000 0000
00000010: 0000 0000 0000 0000 0000 0000 0000 0000
00000020: 0000 0000 0000 0000 0000 0000 0000 0000
00000030: 0000 0000 0000 0000 0000 0000 0000 0000
00000040: 0000 0000 0000 0000 0000 0000 0000 0000
00000050: 0000 0000 0000 0000 0000 0000 0000 0000
00000060: 0000 0000 0000 0000 0000 0000 0000 0000
00000070: 0000 0000 0000 0000 0000 0000 0000 0000
00000080: 0000 0000 0000 0000 0000 0000 0000 0000
00000090: 0000 0000 0000 0000 0000 0000 0000 0000
000000a0: 0000 0000 0000 0000 0000 0000 0000 0000
000000b0: 0000 0000 0000 0000 0000 0000 0000 0000
000000c0: 0000 0000 0000 0000 0000 0000 0000 0000
000000d0: 0000 0000 0000 0000 0000 0000 0000 0000
000000e0: 0000 0000 0000 0000 0000 0000 0000 0000
000000f0: 0000 0000 0000 0000 0000 0000 0000 0000
0.0 0.0 0.0 0.0 0.0 0.0 0.0 0.0
0.0 0.0 0.0 0.0 0.0 0.0 0.0 0.0
0.0 0.0 0.0 0.0 0.0 0.0 0.0 0.0
0.0 0.0 0.0 0.0 0.0 0.0 0.0 0.0
0.0 0.0 0.0 0.0 0.0 0.0 0.0 0.0
0.0 0.0 0.0 0.0 0.0 0.0 0.0 0.0
0.0 0.0 0.0 0.0 0.0 0.0 0.0 0.0
0.0 0.0 0.0 0.0 0.0 0.0 0.0 0.0

running_mean f4 [64]
00000000: 0000 0000 0000 0000 0000 0000 0000 0000
00000010: 0000 0000 0000 0000 0000 0000 0000 0000
00000020: 0000 0000 0000 0000 0000 0000 0000 0000
00000030: 0000 0000 0000 0000 0000 0000 0000 0000
00000040: 0000 0000 0000 0000 0000 0000 0000 0000
00000050: 0000 0000 0000 0000 0000 0000 0000 0000
00000060: 0000 0000 0000 0000 0000 0000 0000 0000
00000070: 0000 0000 0000 0000 0000 0000 0000 0000
00000080: 0000 0000 0000 0000 0000 0000 0000 0000
00000090: 0000 0000 0000 0000 0000 0000 0000 0000
000000a0: 0000 0000 0000 0000 0000 0000 0000 0000
000000b0: 0000 0000 0000 0000 0000 0000 0000 0000
000000c0: 0000 0000 0000 0000 0000 0000 0000 0000
000000d0: 0000 0000 0000 0000 0000 0000 0000 0000
000000e0: 0000 0000 0000 0000 0000 0000 0000 0000
000000f0: 0000 0000 0000 0000 0000 0000 0000 0000
0.0 0.0 0.0 0.0 0.0 0.0 0.0 0.0
0.0 0.0 0.0 0.0 0.0 0.0 0.0 0.0
0.0 0.0 0.0 0.0 0.0 0.0 0.0 0.0
0.0 0.0 0.0 0.0 0.0 0.0 0.0 0.0
0.0 0.0 0.0 0.0 0.0 0.0 0.0 0.0
0.0 0.0 0.0 0.0 0.0 0.0 0.0 0.0
0.0 0.0 0.0 0.0 0.0 0.0 0.0 0.0
0.0 0.0 0.0 0.0 0.0 0.0 0.0 0.0

running_var f4 [64]
00000000: 0000 803f 0000 803f 0000 803f 0000 803f
00000010: 0000 803f 0000 803f 0000 803f 0000 803f
00000020: 0000 803f 0000 803f 0000 803f 0000 803f
00000030: 0000 803f 0000 803f 0000 803f 0000 803f
00000040: 0000 803f 0000 803f 0000 803f 0000 803f
00000050: 0000 803f 0000 803f 0000 803f 0000 803f
00000060: 0000 803f 0000 803f 0000 803f 0000 803f
00000070: 0000 803f 0000 803f 0000 803f 0000 803f
00000080: 0000 803f 0000 803f 0000 803f 0000 803f
00000090: 0000 803f 0000 803f 0000 803f 0000 803f
000000a0: 0000 803f 0000 803f 0000 803f 0000 803f
000000b0: 0000 803f 0000 803f 0000 803f 0000 803f
000000c0: 0000 803f 0000 803f 0000 803f 0000 803f
000000d0: 0000 803f 0000 803f 0000 803f 0000 803f
000000e0: 0000 803f 0000 803f 0000 803f 0000 803f
000000f0: 0000 803f 0000 803f 0000 803f 0000 803f
1.0 1.0 1.0 1.0 1.0 1.0 1.0 1.0
1.0 1.0 1.0 1.0 1.0 1.0 1.0 1.0
1.0 1.0 1.0 1.0 1.0 1.0 1.0 1.0
1.0 1.0 1.0 1.0 1.0 1.0 1.0 1.0
1.0 1.0 1.0 1.0 1.0 1.0 1.0 1.0
1.0 1.0 1.0 1.0 1.0 1.0 1.0 1.0
1.0 1.0 1.0 1.0 1.0 1.0 1.0 1.0
1.0 1.0 1.0 1.0 1.0 1.0 1.0 1.0

weight f4 [512, 64]
00000000: c1f1 25be 27b9 3f3d 8c83 043e 5e68 043d
00000010: 64c6 953c a9bc f2bb 6479 d1bd 4114 67be
00000020: 1304 afbd e7b2 b53c 2f22 d0bd feeb cb3b
00000030: 1e07 25bd 012b 483e 2071 0bbd 3957 663c
00000040: 2189 1a3c fadd c6bd b6bc debd a92a 1fbe
00000050: 6ee9 2dbd df59 45be 8529 6abd eaac a7bc
00000060: 8178 203d 63db e3bd 2ba0 10bd daa0 ac3d
00000070: 5aa4 b7bd 2157 c6bd f0bb a23c 46ac bb3d
00000080: 00b5 873d 8558 3cbe fd1d 193c 2072 12bb
00000090: 951c 68bc 8800 e6bd bbbd 11be e0b6 0abc
000000a0: 5771 28bc 94b4 8d3c add4 7cbb 3484 e63c
000000b0: 78c1 97bd 640c 73bb 5548 0d3d 0841 58bd
000000c0: f500 9ebc 3621 793c 7e14 07be 0aee df3b
000000d0: f52e 9fbd 172e 44bd 09be eabc ac93 063d
000000e0: 7dab 0e3c 5eed 74bd d516 1bbd ee88 a43c
000000f0: c830 5cbd 1d7c e33c c994 98bd 2ead d0bd
00000100: d9b0 edbc 8c27 b5bd baad debb 81df cfb8
00000110: 393f bbbc aaa0 a0bd b8b9 e0bc a217 d4bd
00000120: 962f 923c 0671 093e 19e1 59bd 6595 e2bd
00000130: 4a17 2e3d aa0a 8d3c bfe8 cabc 13e0 77bd
00000140: 96a6 f43d 48d3 553d 1f94 85bd 5135 15be
00000150: 3637 8b3d 1a40 a8bd 2a90 f83b 51f0 61bc
00000160: 69a9 c53b 6f3a 2dbd bcc4 c33d 880c 153d
00000170: 5d7a e83b 380a 773d 48b7 a7bc 5e0f 7dbd
00000180: 9afe cbbd 1fe5 1bbe f3af b9bd 9695 ffbd
00000190: be0e bcb8 df7e 1fbd 3fa5 89bd 5f59 e53d
000001a0: a4b7 75be aeba 3bbd 7c15 e4bd 39b5 ba3d
000001b0: c463 3bbb 9e1a 303c 49af 27bd 3f07 9e3d
000001c0: d27e debd a0cb a1bd 8696 88bc c566 54be
000001d0: 69ad 23bc e668 f6bc 9aa1 cd3d 9ac6 94bc
000001e0: e6ad 9fbc e3b2 d0bd 9300 833b 87c6 003e
000001f0: 99c6 2dbd 3f37 87bd 5d45 a33d a03d 5c3d
00000200: fa90 75be c86e ea3d fc28 ccbd fae5 13bd
00000210: 8570 d43d 8c74 4cbd c9d2 903c e6c7 7abd
00000220: 57a8 44bc c15e 0b3b 32c8 c4bc 5a1f 22be
00000230: f94a 1abd a28d 3fbd aea4 febb f81a fcbd
00000240: 7848 89bd 2b20 52be c0a9 8b3c 408b 68bd
00000250: 51b6 09be f0a2 8bbd f067 67be c377 a9bd
00000260: 70f4 26be 559a 8bbe 2542 e73c c286 99bc
00000270: 43e7 223c 3b4e f1bd 302e e2bc e053 96bd
00000280: e1a0 e4bd 2dc8 4f3e 3deb 51bd 4854 dabd
00000290: af12 abbb 977c 1e3e ea58 83bd 1ada c63d
000002a0: de6e cbbe d6bb 453d 9028 a3bd ded8 f8bd
000002b0: b835 e7bd 9908 023d c6af 09be 80c6 63be
000002c0: 828c c4bd 4394 32bd db32 2039 cbc6 e1bd
000002d0: b877 6d3d 634f adbd 9ccd e53d bfb2 93bd
000002e0: 4aaf 0bbe f8d6 fb3c 77c6 32be 54f5 babd
000002f0: 6bdc fdbd d5d2 76bd 20d6 68bc acb0 8a3d
00000300: 12d9 dfbd f2d3 a5bd a088 6abd 564c 44bd
00000310: 5c81 85bd 368e 903b a019 b3bd 68e6 5c3d
00000320: 3bee 8cbd b8fd c83c 07ef ce3d 2f9b 943d
00000330: bd2c d93d ffd2 93bd 20c5 e73c 231e 11bd
00000340: cce6 4a3d d460 ebbd b32f b43d 2d56 7b3d
00000350: 1e41 ac3d f9ea cfbd 9f01 a33d 4da1 ac3d
00000360: 6b9a e33c 3dd1 3cbe ba8f 6cbd cf06 06bd
00000370: 9378 a03d fefb 8dbd 58d8 c6bd 6e37 bb3d
00000380: 62b4 76bd 5b9c 1d3d 162d 72bd b60f cc3d
00000390: 71ee 48bd 5962 283d 4ed5 a03d 27fa 283d
000003a0: d95c a83c d072 8a3d 195c 213e 796f 97bd
000003b0: 38f1 ecbd 9742 6cbc 280c 6bbd 35dc e0bd
000003c0: 2208 ab3d a49d b13d 2e78 eebd bc67 913d
000003d0: c8a7 02ba 1537 e0bd 5c1b 29bd 1077 5ebd
000003e0: 3fd8 c8bd 44b7 8b3d 2374 07bd 466e 993d
000003f0: 06de 6ebc d587 c43b e5d1 03bd 60e6 273c
-0.16205503 0.046807434 0.12940806 0.032326095 0.018283077 -0.007407744 -0.102282315 -0.2256632
-0.08545699 0.022180034 -0.1016277 0.006223201 -0.04028999 0.19547655 -0.03404343 0.014058881
0.009432108 -0.097103074 -0.108758375 -0.15543617 -0.042458944 -0.19272564 -0.057168502 -0.020468194
0.03917742 -0.11125829 -0.035308998 0.084291175 -0.089668944 -0.09684587 0.019865006 0.09163718
0.0662632 -0.18393143 0.009345529 -0.0022345856 -0.014166971 -0.1123057 -0.14232533 -0.008466452
-0.010280929 0.01729802 -0.0038578913 0.028139211 -0.07409948 -0.0037086243 0.03449281 -0.052796394
-0.019287566 0.015205672 -0.13191411 0.0068337964 -0.07772628 -0.047895517 -0.028655069 0.032855675
0.008707878 -0.059796683 -0.03786357 0.020084824 -0.05375746 0.027769143 -0.074502535 -0.101892814
-0.029014992 -0.088454336 -0.006795612 -9.91216e-05 -0.022857295 -0.07843144 -0.027432308 -0.1035607
0.017844956 0.13422021 -0.053193185 -0.11063651 0.04250268 0.017217 -0.024769185 -0.06051643
0.11945836 0.052203447 -0.065223925 -0.1457112 0.0679764 -0.082153514 0.007585545 -0.013790206
0.006032158 -0.042292055 0.095590085 0.036388904 0.007094665 0.06031248 -0.020473137 -0.061782233
-0.09960671 -0.15224122 -0.09066763 -0.12479703 -8.9672845e-05 -0.038939353 -0.06720971 0.11198687
-0.23995835 -0.04583233 -0.1113691 0.09116597 -0.00285934 0.0107485335 -0.04093865 0.07716226
-0.10864033 -0.079001665 -0.016673338 -0.20742328 -0.009990075 -0.030079316 0.10040589 -0.018161107
-0.0194921 -0.1019037 0.003997871 0.12575732 -0.042425726 -0.06602334 0.07972214 0.053769708
-0.23981085 0.11446911 -0.09968755 -0.036107995 0.10373024 -0.049915835 0.017678635 -0.061225794
-0.012003026 0.0021266195 -0.024021242 -0.15832272 -0.037669156 -0.04676593 -0.007771096 -0.123098314
-0.067032754 -0.20520084 0.017048717 -0.056773424 -0.13448454 -0.06818187 -0.22598243 -0.08274796
-0.16304183 -0.27266183 0.028229782 -0.018741015 0.009942832 -0.117824994 -0.027609915 -0.07340217
-0.11163498 0.20291205 -0.05124973 -0.106606066 -0.005220733 0.15477215 -0.064134434 0.09709568
-0.39733022 0.048274837 -0.07966721 -0.12150739 -0.11289543 0.03174648 -0.13445958 -0.2224369
-0.09597112 -0.043598425 0.00015277734 -0.11024245 0.0579755 -0.084624074 0.112208575 -0.072118275
-0.13641086 0.030742154 -0.17458521 -0.09128824 -0.12395557 -0.06025966 -0.014211208 0.06771979
-0.10930075 -0.08097066 -0.057259202 -0.047924362 -0.06518814 0.004411484 -0.08745122 0.05393067
-0.06881376 0.024535045 0.101041846 0.072561614 0.10604236 -0.07217979 0.028292239 -0.03542913
0.04953651 -0.11493078 0.087981604 0.06136148 0.084108576 -0.10152239 0.079592936 0.08429203
0.027783593 -0.18439193 -0.057754256 -0.032721337 0.07835498 -0.06932829 -0.09709233 0.09141432
-0.06023062 0.03847919 -0.05912503 0.09963934 -0.04905552 0.041109417 0.07853185 0.04125419
0.020552086 0.0676018 0.15757789 -0.073943086 -0.11569446 -0.014420173 -0.05738464 -0.10979501
0.083511606 0.08672646 -0.11644016 0.07099864 -0.0004984108 -0.10948006 -0.041285858 -0.054312766
-0.09806871 0.068220645 -0.03306974 0.07491736 -0.014579302 0.0059976378 -0.032182593 0.010247797

bias f4 [512]
00000000: 7daa 69bd e88b 51be 0410 23be 2776 2abe
00000010: af6f 0bbe 70ec 1fbe 1109 75be 2569 07be
00000020: 4dba 29be a180 2ebe 2368 83be 5e05 0ebe
00000030: 0413 08be a71c 3dbe 7c07 24be f050 04be
00000040: c83c 28be db36 64be be0c 07be 3e16 01be
00000050: 5f89 27be bf04 1ebe 6e68 34be afa0 32be
00000060: 6d90 36be e79d 3fbe 743b 32be 4eeb 1ebe
00000070: 77f2 57be 5ac4 c0bd 4561 07be dc46 16be
00000080: 1482 70be dbda 1cbe 4f0b 21be 78a2 a6be
00000090: 7b20 1abe c592 2cbe 60e4 d1be 3cfc febd
000000a0: c3b8 c6be 7190 14be 0cc4 e43c 95cd 35be
000000b0: 2a6f 77be 63b4 93bd 9ca4 2abe 194f f6bd
000000c0: e594 0cbe 6c21 dbbd 7130 5abe 55cc 56be
000000d0: ee05 69be 2335 bfbd a163 14be 37cc 21be
000000e0: 45a8 15be b755 8ebe 28a4 53be c530 babd
000000f0: 7968 33be d90c 38be b855 00be 1f79 02be
00000100: 0767 12be 6d5c 53be 629f 37be abf4 72be
00000110: 1744 49be 52ce 66be ea62 85be dd54 5fbe
00000120: 3607 0cbe 3ca0 62be 5a79 79be 6e20 23be
00000130: 956b 25be c21a 1abe 1607 9dbd 3de9 11be
00000140: a190 84be f32e f5bd d713 f6bd 1047 73be
00000150: 7115 3dbe c97c 57be c4b2 39be 31ab e8bd
00000160: 7c3a 93be 91c1 0abe 894c 03be ceec 06be
00000170: 63e6 24be 2eed 58be e33c efbd 2461 3fbe
00000180: ff8f 32be 332c 56bd b28a 1fbe 59b0 21be
00000190: 38f1 5ebd b0f1 04be 5b69 13be f9aa 1cbe
000001a0: 17c5 28be f6cf 4cbe 7581 53be 9d5a 5fbe
000001b0: 6221 54be 09df ccbe 5145 15be d774 f3bd
000001c0: da5d 56be fd95 5cbe f72b 37bd fa2e 54be
000001d0: 08c6 4dbe 4432 19be 729b d6bd db6e cdbd
000001e0: cfc2 ddbd fd04 01be b0a1 1cbe fbf2 70be
000001f0: 0c11 51be 039b dbbd 2b4d 82be 57cf 56be
00000200: 0902 69be d797 30be 9d67 27be f63f 1bbe
00000210: 9830 61be d167 e9bd 30fe 0bbe a9fa 47be
00000220: ad42 05be 237c debe 0481 f7bd 4606 2fbe
00000230: 4cb9 07be 8e7f 23be 3cff 3dbe b10c cabd
00000240: ca32 1dbe 8805 09be 0ab3 40be 5d61 60be
00000250: 1ac4 41be 3ce2 81be 2ade 30be b0db 17be
00000260: 4278 35be d78b 40be 25ba 99bd 4746 1dbe
00000270: 9e41 03be c913 a0bd 2329 f0bd a4cc 04be
00000280: 4aa0 3cbe fbec eabd 10da 0dbe e9e8 cabd
00000290: 238b 21be 76c4 46be 5def 4bbe 2aa5 6dbe
000002a0: 6eb5 53be 0c4f 33be cde2 39be c65f 3abe
000002b0: 97be 5ebe 5242 12be a4b5 b1bd 9017 8fbe
000002c0: 31c2 34be 750c 3ebe 5c6d b1bd cc57 46be
000002d0: 8888 00be ddee 37be b45a 36be 35fb 2cbe
000002e0: a262 12be 2d18 f8bd 5aa1 14be 567c 75be
000002f0: 83cc 4abe 0a6d 77be 6652 14be 6313 4ebe
00000300: 4678 d6bd e3de 31be 2c31 01be 9e83 14be
00000310: 2e56 9bbe cec3 1dbe 7796 a4bd a650 84be
00000320: 7bf9 09be 4250 f2bd 68c4 f8bd 99cf 1bbe
00000330: d8bc dbbd db1c 8fbe 814e 2dbe a12a 02be
00000340: 9812 79be 0ee2 03be ab07 46be 0232 52be
00000350: ecac 30be 1a2e 3abe 6ba8 3bbe 910a 04be
00000360: 6b3e fbbd d248 2cbe 0c3c 81be 94b5 25be
00000370: 43f6 0abe d9c5 39be 4370 e9bd c233 07be
00000380: 8a53 e6bd 6841 84be fd4e f4bd d3b8 4fbe
00000390: 1933 5cbe 0df3 40be ba54 64be a68e 76be
000003a0: 9cb6 24be e230 33be a900 fbbd 53ee 41be
000003b0: 316c e9bd ad62 50be 4828 d5bd f124 67be
000003c0: da8f 05be 13eb ebbd 8891 72be 5baa d6bd
000003d0: 4dfc 98bd 1840 38be 692d 57be 5ec0 91be
000003e0: 6ed7 3fbe 33a9 73be 84aa b2bd 888b 17be
000003f0: 1292 04be cc7c 2ebe 0a09 56be 0fec 47be
-0.057047356 -0.20463526 -0.15924078 -0.16646634 -0.13616823 -0.15617537 -0.2392924 -0.13223703
-0.16574974 -0.17041256 -0.25665388 -0.13869235 -0.13288504 -0.18467961 -0.1601848 -0.129215
-0.16429436 -0.2228655 -0.13188455 -0.12606141 -0.16360997 -0.15431498 -0.17617962 -0.17444108
-0.17828532 -0.18712579 -0.17405492 -0.15519449 -0.21088587 -0.09412451 -0.13220699 -0.14675468
-0.23487121 -0.15317862 -0.1572697 -0.3254583 -0.15051453 -0.16852863 -0.4099455 -0.12450454
-0.38812837 -0.14508225 0.027925514 -0.17754205 -0.241635 -0.072121404 -0.16664356 -0.120268054
-0.13728674 -0.10699734 -0.21307541 -0.20976384 -0.22756168 -0.09336307 -0.1449113 -0.15800558
-0.14614971 -0.2779977 -0.2066809 -0.09091333 -0.17520322 -0.17973651 -0.12532699 -0.12741517
-0.14297114 -0.20640726 -0.17931893 -0.23726146 -0.1965488 -0.22539642 -0.26052028 -0.21809717
-0.13674626 -0.22131437 -0.24362698 -0.1593034 -0.1615432 -0.1504927 -0.07667367 -0.1424913
-0.25891593 -0.119718455 -0.12015503 -0.23757577 -0.1846521 -0.21043696 -0.181346 -0.11360777
-0.28755558 -0.13550402 -0.12822165 -0.13176271 -0.1610351 -0.21184227 -0.11681535 -0.186894
-0.17437743 -0.052288245 -0.15580252 -0.15789928 -0.054429263 -0.12982821 -0.14395659 -0.15299596
-0.16481434 -0.20001206 -0.20654853 -0.2181191 -0.2071586 -0.40013912 -0.14577223 -0.1188752
-0.20934239 -0.21541591 -0.044719663 -0.20721045 -0.20095074 -0.14960581 -0.104788676 -0.1003091
-0.108281724 -0.12599559 -0.15296054 -0.2353019 -0.20416659 -0.107229255 -0.254495 -0.20977531
-0.22754683 -0.17245422 -0.16348119 -0.15161118 -0.21991193 -0.113967545 -0.13671184 -0.19529213
-0.13013716 -0.43454084 -0.12085155 -0.17092237 -0.13254279 -0.15966627 -0.18554395 -0.09865702
-0.15351406 -0.13381016 -0.18818298 -0.21912141 -0.18922463 -0.25367916 -0.17272249 -0.14829898
-0.17721656 -0.18803345 -0.075062074 -0.1535884 -0.12818 -0.07816274 -0.11726596 -0.12968689
-0.1842052 -0.11470982 -0.13852715 -0.09907705 -0.15775733 -0.19410881 -0.19915529 -0.23207536
-0.20674679 -0.17510623 -0.18152924 -0.18200597 -0.21752392 -0.14283112 -0.08677223 -0.27947664
-0.17652203 -0.1855944 -0.08663437 -0.1936943 -0.12552083 -0.17962213 -0.17808038 -0.16892703
-0.14295438 -0.12113986 -0.14514676 -0.23973212 -0.19804578 -0.24162689 -0.14484558 -0.20124583
-0.10472159 -0.17370181 -0.12616414 -0.14503333 -0.30339187 -0.15406725 -0.080365114 -0.2584278
-0.13474075 -0.11831714 -0.121468365 -0.15215911 -0.107293785 -0.27951702 -0.16924478 -0.12711574
-0.24323499 -0.12879202 -0.19338863 -0.20526889 -0.17253464 -0.18181649 -0.18325965 -0.12894656
-0.12267765 -0.16824654 -0.25241125 -0.16182548 -0.13570504 -0.18141879 -0.11398365 -0.13203338
-0.112464026 -0.2583115 -0.11929128 -0.20285349 -0.21503867 -0.18842717 -0.22297946 -0.24077854
-0.16085285 -0.17499116 -0.12255985 -0.1893857 -0.11397589 -0.20350142 -0.10408074 -0.22572686
-0.13043156 -0.11519446 -0.23688328 -0.104817115 -0.074699976 -0.179932 -0.21013416 -0.28467077
-0.18734524 -0.23795013 -0.087239295 -0.1479932 -0.12946346 -0.17039794 -0.20901886 -0.19523643
