training/pretrained_model/current_model_4600.pth (torch_old, 349474 bytes, 25 tensors)

weight f4 [32, 1, 2, 2]
0	0xbefea86c	-0.4973787
1	0x3ebdf6d0	0.37102365
2	0xbfad17ff	-1.3522948
3	0xbfb10007	-1.3828133
4	0x3f1565ea	0.58358634
5	0xbf0c8bab	-0.54900616
6	0x3daed72b	0.08537134
7	0x3e0ff19a	0.14057007
8	0xbf19b456	-0.60040796
9	0xbe650cf2	-0.2236822
10	0xbe006a4d	-0.1254055
11	0x3ebe1c2d	0.3713087
12	0x3ee3d3b2	0.44497448
13	0xbf515262	-0.8176633
14	0xbf7c8574	-0.98641133
15	0xc08fee76	-4.497859
16	0xbe8cf1e7	-0.27528307
17	0xbe9014bd	-0.28140822
18	0xbc8dd326	-0.017312597
19	0xbd1f5599	-0.03889999
20	0xbecb9f7a	-0.39770108
21	0xbefb0c4d	-0.49032822
22	0x3ea13ee5	0.31493297
23	0xbe805186	-0.25062197
24	0x3e7033e2	0.23457292
25	0xbe372233	-0.1788414
26	0x3e1db8b1	0.15402485
27	0x3ef8fef0	0.48632002
28	0xbf2b2549	-0.6685377
29	0x3f39d273	0.72586745
30	0xbfe8d27d	-1.8189236
31	0x3f3d0111	0.7382975
32	0x3e8bdc55	0.27316537
33	0x3f0758e3	0.52870005
34	0xbedafc3a	-0.4277056
35	0x3c99c4cb	0.018770596
36	0xbebe9387	-0.3722193
37	0xbf697a19	-0.9120193
38	0xbf8b5343	-1.0884784
39	0xc03fd0e1	-2.997124
40	0x3e988c34	0.29794466
41	0x3f45b674	0.77231526
42	0x3eb9ea27	0.36311457
43	0x3f6e30be	0.93043125
44	0x3e94c319	0.29055098
45	0x3ef92a91	0.48665288
46	0xbeb78594	-0.358441
47	0x3fc40330	1.5313473
48	0xbefb845b	-0.49124417
49	0xbe8a9eb7	-0.27074215
50	0x3e93ce4a	0.28868324
51	0xbc8b9d03	-0.017042642
52	0x3f4c9b1d	0.79924184
53	0xbe11ae70	-0.14226699
54	0xbf744004	-0.9541018
55	0xbf7f560c	-0.9974067
56	0xbdf004d9	-0.117196746
57	0xbeaf1403	-0.34194955
58	0x3ed89d31	0.42307428
59	0x3ccceb51	0.025014551
60	0x3e7ba850	0.24575925
61	0xbf268d4f	-0.6505937
62	0xbf09318f	-0.53591245
63	0x3e4fea1b	0.20304148
64	0x3efa579b	0.48894963
65	0x3f897563	1.0738949
66	0xbf95ba44	-1.1697469
67	0xbe44e08b	-0.19226281
68	0xbe1afb18	-0.15134847
69	0x3f02f717	0.5115828
70	0xbf94a064	-1.1611447
71	0xbd486c13	-0.048931193
72	0x3f0893ef	0.5335073
73	0x3f858d74	1.0433793
74	0x3f02cb00	0.51091003
75	0x3f4d0980	0.8009262
76	0x3e90b767	0.28264925
77	0x3e7f6d9f	0.24944161
78	0x3db455d0	0.0880543
79	0x3c5b081b	0.013368632
80	0xbe2be90d	-0.1678812
81	0x3f04527f	0.5168838
82	0x3e9cf8e3	0.30658635
83	0x3f0c9efe	0.549301
84	0x3f2df200	0.6794739
85	0x3ee8b530	0.45450735
86	0x3edc1d13	0.42990932
87	0x3f0cdbab	0.55022687
88	0xbeabd5ed	-0.3356165
89	0x3d07635d	0.033053745
90	0x3ec30695	0.3809096
91	0xbecde945	-0.40217033
92	0x3e660718	0.22463644
93	0x3f000424	0.5000632
94	0x3e8b2cb2	0.27182537
95	0x400817ff	2.1264646
96	0xbef0f991	-0.47065404
97	0xbd082947	-0.03324249
98	0xbf589495	-0.8460172
99	0xbe071606	-0.13191995
100	0x3f337ccf	0.7011232
101	0xbf180ed8	-0.5939765
102	0x3fa33be9	1.2752658
103	0xbf0c2a5d	-0.5475214
104	0x3f4dd801	0.8040772
105	0x3f8933f8	1.0718985
106	0xbf0ca11e	-0.54933345
107	0x3f6d7e1c	0.9277055
108	0x3f207e11	0.6269236
109	0x3f592eda	0.84837115
110	0x3f4ebfa9	0.807612
111	0x3f1ddff7	0.6166987
112	0x3ea0b2ec	0.31386507
113	0x3eabd649	0.33561924
114	0x3e7a5314	0.24445754
115	0x3ebbbf2f	0.366693
116	0x3f15d4c0	0.58527756
117	0x3eab14f0	0.33414412
118	0x3f1745c1	0.5909081
119	0x3f3b648d	0.73200303
120	0xbe5c795d	-0.21530671
121	0x3e013f3c	0.12621778
122	0xbfb9fdfa	-1.4530632
123	0xbf32254d	-0.69588166
124	0x3f10011b	0.56251687
125	0x3f77ec28	0.9684472
126	0x3f776559	0.9663902
127	0x3f0fa889	0.5611654

bias f4 [32]
0	0xbd3a5617	-0.045492258
1	0x3ed453cf	0.4147019
2	0x3dd56059	0.104187675
3	0x3e9e02ec	0.30861604
4	0x3edd4c3d	0.43222228
5	0x3ebbaec3	0.3665677
6	0x3e7c9088	0.2466451
7	0xbed248fc	-0.41071308
8	0x3dc084a3	0.094002984
9	0xbe873d16	-0.26413792
10	0xbed13dde	-0.40867513
11	0xbec3d01d	-0.38244715
12	0x3ec6d218	0.38832164
13	0x3e5720e3	0.21008639
14	0xbeab9c44	-0.3351766
15	0xbeac026c	-0.33595598
16	0x3dc72586	0.09723954
17	0x3e48b411	0.1959994
18	0xbdc48cf5	-0.09597198
19	0x3ea81ac0	0.3283291
20	0x3e4868b5	0.19571193
21	0x3db214a7	0.08695345
22	0xbe1e3790	-0.15450883
23	0xbee6be7d	-0.45067206
24	0xbd78e791	-0.060767714
25	0x3e327e38	0.17430961
26	0x3e978007	0.29589865
27	0x3ee204f7	0.44144413
28	0x3e0bda94	0.136576
29	0xbeb4f54a	-0.3534339
30	0x3d963ea9	0.0733617
31	0x3e2657b5	0.16244395

weight f4 [32]
0	0x3d80c747	0.06288009
1	0x3d26be69	0.040708933
2	0x3f8907ec	1.0705543
3	0x3fb69799	1.4265014
4	0x3e412bc7	0.18864356
5	0x3d1f7641	0.038931135
6	0xba40da73	-0.000735677
7	0x3fa2eb68	1.272809
8	0x3d215258	0.03938517
9	0x40016ba0	2.022194
10	0x3f18398b	0.59462804
11	0x3d49ffa2	0.049316056
12	0xba035367	-0.00050096813
13	0x3f57208a	0.84034026
14	0xbc796187	-0.015221006
15	0x3d471e27	0.04861274
16	0x3f107204	0.56423974
17	0xba780d3a	-0.000946242
18	0x3f0823c4	0.53179574
19	0x3c7db1e8	0.015484311
20	0x3cddd593	0.02707938
21	0x3d3b8164	0.045777693
22	0xba71a8a8	-0.0009218552
23	0x3defde28	0.11712295
24	0x3ea80619	0.32817152
25	0x3f18de42	0.5971414
26	0x3d142c1a	0.03617487
27	0x3f8b528d	1.0884567
28	0xb9e2f64a	-0.0004328958
29	0x3fe484db	1.7853044
30	0x3f12fbac	0.5741527
31	0x3f0c4e38	0.5480685

bias f4 [32]
0	0xbf36014f	-0.71095747
1	0xbeb53dfa	-0.35398847
2	0xbf0146ad	-0.5049847
3	0x3b76bc8e	0.0037649008
4	0xbe979c8c	-0.29611623
5	0xbea24195	-0.3169066
6	0xbda7b375	-0.081885256
7	0xbe0336e6	-0.12813911
8	0xbf04322c	-0.51639056
9	0xbefc7f3a	-0.49315816
10	0x3df7d152	0.121004716
11	0xbed833ad	-0.42226925
12	0xbc336374	-0.010949004
13	0xbf59717b	-0.8493878
14	0xbe0beac0	-0.13663769
15	0xbee90112	-0.4550863
16	0x3e4c45f6	0.19948563
17	0xbe1f8d75	-0.15581305
18	0xbce6da28	-0.028180197
19	0xbe213224	-0.15741783
20	0xbe65c7ab	-0.22439449
21	0xbec19168	-0.3780625
22	0xbdc389e6	-0.095477864
23	0xbed7d891	-0.42157415
24	0xbed9ae11	-0.42515615
25	0x3da62251	0.08112014
26	0xbea91811	-0.33026174
27	0x3ed7cc5f	0.4214811
28	0xbdf2c503	-0.11853983
29	0xbe9a2aef	-0.3011088
30	0xbdaec3f4	-0.08533469
31	0x3e1cfcfc	0.15330881

running_mean f4 [32]
0	0xc2f6341c	-123.101776
1	0x4284c6db	66.38839
2	0xc2ba6ddc	-93.21457
3	0xc2577871	-53.86762
4	0xc246a147	-49.657497
5	0xc27f9f28	-63.905426
6	0x421613a7	37.51919
7	0xc301f5b1	-129.95973
8	0x42262466	41.535545
9	0xc3206141	-160.3799
10	0x42bc1287	94.03619
11	0x42722dc1	60.54468
12	0xc286b118	-67.34589
13	0x426bf9d2	58.993965
14	0xc14b68b8	-12.713066
15	0xc10fe1b5	-8.992604
16	0x42733145	60.798115
17	0xc23edc3b	-47.71507
18	0x430e01b5	142.00667
19	0x4252fd9e	52.747673
20	0x415bb141	13.730775
21	0x4306a792	134.65457
22	0xc20cf87d	-35.242664
23	0x42a541bc	82.62839
24	0xc2cb133f	-101.53759
25	0x42f02fdb	120.09347
26	0x430d1633	141.08672
27	0x431dbfc1	157.74904
28	0x428bea46	69.957565
29	0x42f91fb5	124.56193
30	0xc2b30756	-89.51433
31	0x431ea27a	158.63467

running_var f4 [32]
0	0x4889a605	281904.16
1	0x4833b449	184017.14
2	0x482c3d92	176374.28
3	0x4860648d	229778.2
4	0x471e4732	40519.195
5	0x47c00ed9	98333.695
6	0x46ee84f5	30530.479
7	0x49008164	526358.25
8	0x47849273	67876.9
9	0x4850d868	213857.62
10	0x47a8768c	86253.09
11	0x47819248	66340.56
12	0x47f96ea9	127709.32
13	0x48bfab2c	392537.38
14	0x46e24e34	28967.102
15	0x479ab8f7	79217.93
16	0x4892ef85	300924.16
17	0x480a8898	141858.38
18	0x4853d41b	216912.42
19	0x4724363a	42038.227
20	0x471410e5	37904.895
21	0x48702a2f	245928.73
22	0x478401c6	67587.55
23	0x473270be	45680.742
24	0x4821536a	165197.66
25	0x48c0dd96	394988.7
26	0x48c4596e	402123.44
27	0x4888001d	278528.9
28	0x4761b7bd	57783.74
29	0x48401441	196689.02
30	0x4845eaa0	202666.5
31	0x4887a9bb	277837.84

weight f4 [64, 32, 2, 2]
0	0xbe2fb496	-0.17158732
1	0xbc302924	-0.010751996
2	0xbe152061	-0.14563133
3	0xbd989ed9	-0.07452173
4	0xbd6d991e	-0.058007352
5	0xbc9691f6	-0.018380146
6	0xba2025e0	-0.00061091594
7	0x3ca5134f	0.020150809
8	0xbdff0a48	-0.12453133
9	0xbd920ad8	-0.071309745
10	0xbd3bf9a2	-0.045892365
11	0xbde4b022	-0.11166407
12	0xbd970f77	-0.073759966
13	0xbd93264b	-0.07185038
14	0xbe3d9c75	-0.18516715
15	0xbe1cadd8	-0.15300691
16	0xbdca6435	-0.09882394
17	0xbe31f02e	-0.17376778
18	0xbc337440	-0.010953009
19	0xbdc3afdf	-0.09555029
20	0xbd82f82d	-0.06394992
21	0xbd4ec0ec	-0.050476953
22	0xbddb2160	-0.10699725
23	0xbdd9d70e	-0.106367216
24	0xbc95272b	-0.018207153
25	0x3d4c2260	0.04983747
26	0x3d1d176e	0.038352422
27	0x3d902429	0.07038147
28	0xbe1d6ef1	-0.15374352
29	0xbd3b9403	-0.04579545
30	0xbe3c8f4d	-0.1841404
31	0xbd478f90	-0.048720896
32	0xbd1d3856	-0.038383804
33	0xbc03fde9	-0.008056142
34	0xbd3bf21d	-0.045885194
35	0xbc64131d	-0.013920573
36	0xbdb9fab3	-0.0908102
37	0xbd644d2e	-0.055737667
38	0xbe5ca759	-0.21548213
39	0xbd90fc2a	-0.070793465
40	0xbc2ae00b	-0.010429393
41	0xbe1ee26e	-0.15516064
42	0xbd4f48dd	-0.050606597
43	0x3d8f3629	0.06992752
44	0xbdad84ad	-0.084725715
45	0xbda3627d	-0.079777695
46	0xbdcb6b8f	-0.099326245
47	0x3d74ab39	0.059733603
48	0xbce84941	-0.028355243
49	0xbd3f6b6a	-0.046733297
50	0x3a12a72c	0.00055943686
51	0xbd88e838	-0.06684917
52	0xbd0ae16d	-0.03390639
53	0xbde43d1b	-0.111444674
54	0xbd2824da	-0.04105077
55	0xbdcb3bda	-0.09923525
56	0x3d337c96	0.043819986
57	0x3d1f88a4	0.03894867
58	0xbc0c8a7d	-0.00857794
59	0x3d8730a8	0.06601077
60	0x3b90c6c5	0.0044182264
61	0xbbc74dd3	-0.0060822754
62	0xbdcf4cd0	-0.10122073
63	0x3da26ba9	0.07930691
64	0xbe2b6bef	-0.16740392
65	0xbd21f249	-0.0395377
66	0xbde99628	-0.11405593
67	0xbd00abf5	-0.03141399
68	0xbe0cf0cc	-0.13763732
69	0x3cd68cc2	0.026190165
70	0xbcb4b8c5	-0.022060761
71	0xbdd1a4fd	-0.10236547
72	0x3c6755aa	0.014119545
73	0xbdf1b428	-0.1180194
74	0xbc6dd64c	-0.014516424
75	0x3d11db25	0.035609383
76	0x3b8e2a4e	0.004338539
77	0x3cdc5c58	0.026899502
78	0x3c30ffb6	0.010803154
79	0xbd3fab36	-0.04679414
80	0xbe04b42b	-0.12959354
81	0x3ca0e232	0.019639108
82	0xbdd75de8	-0.10515958
83	0xbde4844f	-0.11158048
84	0xbd680123	-0.05664171
85	0xbc7ee152	-0.01555665
86	0x3c9ddfe9	0.019271808
87	0xbe05b576	-0.13057503
88	0xbc7ba57c	-0.015359279
89	0x3cfddaf0	0.030988187
90	0xbd46379e	-0.048392884
91	0x3d8c7f37	0.06860202
92	0xbc5d8763	-0.013521048
93	0xbe36aed7	-0.17840134
94	0xbb3388a2	-0.0027394672
95	0x3d43cfaa	0.047805466
96	0xbe1b8da7	-0.15190755
97	0x3b861f81	0.004093111
98	0xbd9ccaa3	-0.076558374
99	0xbdf6c194	-0.12048641
100	0xbd2577fe	-0.040397637
101	0xbda30b2c	-0.07961115
102	0xbd84d607	-0.06486135
103	0xbdc3b04f	-0.095551126
104	0x3ca93e31	0.020659538
105	0x3d17d920	0.0370723
106	0xbdff34c0	-0.12461233
107	0xbe17d4bf	-0.1482725
108	0xbd3ef19d	-0.04661714
109	0xbc9b4ff5	-0.018959025
110	0xbe18e9e8	-0.14932978
111	0xbd88178e	-0.06645118
112	0x3dacbce4	0.084344655
113	0x3ca09bfc	0.01960563
114	0x3da5e831	0.081009276
115	0xbdb4277d	-0.08796594
116	0xbb82bbde	-0.0039896807
117	0xbdba7c38	-0.09105724
118	0x3ca0832a	0.019593794
119	0x3d35b386	0.04436066
120	0xbddc3c2f	-0.107536666
121	0x3d41ba59	0.047296856
122	0xbe63d3d2	-0.22248772
123	0xbe2f5857	-0.17123543
124	0xbdc3eabb	-0.09566256
125	0xbd565b6e	-0.052333288
126	0xbdc47e6f	-0.09594428
127	0x3ca047a0	0.019565403
128	0xbe14eac1	-0.14542677
129	0xbdbfd22a	-0.093662575
130	0xbdb5a0e2	-0.088685766
131	0xbe4bb85d	-0.19894548
132	0xbd613a29	-0.054987106
133	0x3d49782b	0.049186867
134	0x3c48be5d	0.012252417
135	0x3cb9da80	0.022687197
136	0xbd0f3ff1	-0.03497309
137	0xbd8ac041	-0.06774951
138	0xbdc80ee4	-0.09768465
139	0x3d11f3e8	0.035632998
140	0xbd954fae	-0.07290588
141	0xbe00cf5e	-0.12579104
142	0xbdf125d0	-0.1177479
143	0xbc823316	-0.0158935
144	0x3be3fe1f	0.006957784
145	0xbdf24a56	-0.11830585
146	0xbc5fedfc	-0.01366758
147	0xbc879814	-0.016552009
148	0xbda34a21	-0.07973123
149	0x3d06591c	0.032799825
150	0x3c484b56	0.012224993
151	0xbd959431	-0.07303656
152	0xbd98dcea	-0.07464011
153	0xbd841a00	-0.064502716
154	0x3d6f901a	0.058487035
155	0xbd8cc6ea	-0.06873877
156	0xbd5f9620	-0.05458653
157	0xbdb60a89	-0.08888728
158	0xbda039ef	-0.0782355
159	0xbe38f55f	-0.18062352
160	0xbcf36294	-0.029710092
161	0xbc921bf4	-0.017835595
162	0x3beb5de8	0.0071828254
163	0xbc3887d8	-0.011262856
164	0xbd8b919f	-0.068148844
165	0xbe14a21a	-0.14514962
166	0xbdac60c0	-0.08416891
167	0xbe30dd62	-0.17271951
168	0x3d2a8449	0.041630063
169	0x3c2a862c	0.010407966
170	0xbc9d2581	-0.019182922
171	0xbc917ba3	-0.01775915
172	0xbde856bc	-0.11344668
173	0xbce10889	-0.02746989
174	0x3ca1cae0	0.019750059
175	0x3d679656	0.056539856
176	0x3c126cd7	0.008937082
177	0xbd5fbd64	-0.054623976
178	0xbcd878b1	-0.026424738
179	0xbc93cd36	-0.018042188
180	0x3bca7d57	0.0061794925
181	0xbd76a63c	-0.060217127
182	0xbdd53550	-0.10410559
183	0x3c4859da	0.0122284535
184	0x3da85660	0.082196
185	0x3cc9b868	0.024624065
186	0xbc3f92f2	-0.011692749
187	0xbd49b06b	-0.04924051
188	0x3c83a6a8	0.016070679
189	0xbcb2a170	-0.021805495
190	0xbda28206	-0.07934956
191	0xbd0baaca	-0.034098424
192	0xbb940e9d	-0.0045183436
193	0x3caa7d6f	0.020811765
194	0xbc0aadc9	-0.008464285
195	0x3c862b14	0.016377963
196	0xbe0ff511	-0.14058329
197	0xbd9303f7	-0.071784906
198	0xbd7a9b53	-0.061183285
199	0xbe118a9e	-0.14213035
200	0x3d4be516	0.04977902
201	0xbddf74fc	-0.10910985
202	0xbd8778c1	-0.06614829
203	0x3ca2d848	0.019878522
204	0x3d4230da	0.04740987
205	0xbdb02283	-0.086003326
206	0xbbc40c20	-0.0059828907
207	0xbd40174a	-0.04689721
208	0xbb38e800	-0.0028214455
209	0x3c5249bb	0.0128349615
210	0xbb0b32d9	-0.0021240024
211	0xbd729e12	-0.05923278
212	0xbd7645c9	-0.060125146
213	0x3b3dc2c1	0.0028955194
214	0xbd988342	-0.074469104
215	0xbcb813c4	-0.022470362
216	0xbd3e38e6	-0.04644098
217	0xbd811ef2	-0.063047305
218	0xbccbee4d	-0.024893904
219	0xbc9ebf9f	-0.019378481
220	0xbdd24f4b	-0.1026903
221	0xbdcc457e	-0.09974192
222	0xbde53e10	-0.11193478
223	0xbda52a69	-0.0806473
224	0xbdc57244	-0.09640935
225	0xbdaccb09	-0.084371634
226	0xbe024394	-0.12721092
227	0xbd8ecfe2	-0.06973244
228	0xbdefa1a8	-0.11700755
229	0xbdd69762	-0.10478093
230	0xbdeb5c80	-0.11492252
231	0xbd98c099	-0.0745861
232	0xbd42dfd5	-0.047576744
233	0x3d81f55d	0.063456275
234	0xbc7fde41	-0.015616954
235	0x3ccf12f0	0.025277585
236	0x3d5ad87d	0.053429116
237	0xbce24f14	-0.027625598
238	0x3ccdfbf9	0.025144564
239	0x3cf1edbc	0.029532306
240	0xbd116a1c	-0.035501584
241	0x3d208f17	0.03919896
242	0xbd8d3a88	-0.068959296
243	0x3d84242f	0.06452214
244	0xbd754dae	-0.059888534
245	0xbc9319d5	-0.017956654
246	0xbd971273	-0.07376566
247	0xbbf32110	-0.007419713
248	0xbd9c5789	-0.076338835
249	0xbd23757f	-0.039906975
250	0xbcebb5cd	-0.028773213
251	0xbda6c5dd	-0.08143208
252	0xbdc580d6	-0.09643714
253	0xbdc32c98	-0.0952999
254	0x3c999c7d	0.018751377
255	0xbda52172	-0.0806302

bias f4 [64]
0	0xbe80e86e	-0.2517733
1	0xbdb3e037	-0.08783
2	0xbe507fbc	-0.20361227
3	0xbe07ea91	-0.13273074
4	0xbe640230	-0.2226646
5	0xbe138799	-0.14407195
6	0xbebde381	-0.37087634
7	0xbeb23482	-0.34805685
8	0xbd8686fb	-0.06568714
9	0xbe0c8918	-0.13724172
10	0xbe51fcf2	-0.20506647
11	0xbe437dca	-0.19090953
12	0xbe74e359	-0.23914851
13	0xbda9c6ba	-0.08289857
14	0xbd9232ed	-0.071386196
15	0x3e059ca0	0.13048029
16	0xbd94a0c8	-0.07257229
17	0xbdd6315b	-0.104586326
18	0xbe350d82	-0.17680934
19	0xbdf00cf0	-0.11721218
20	0xbd48e852	-0.049049683
21	0x3cc47fbd	0.023986692
22	0xbe006d02	-0.12541583
23	0xbe56977f	-0.20956229
24	0x3eb12f66	0.34606475
25	0xbe137387	-0.14399539
26	0xbd4c17db	-0.049827438
27	0xbe65095c	-0.22366852
28	0xbe374abf	-0.17899607
29	0xbe94fe60	-0.29100323
30	0xbe575b5c	-0.21030945
31	0xbe6dfa13	-0.23239927
32	0xbea70b6c	-0.32625902
33	0xbd840fe0	-0.064483404
34	0xbe78c1dd	-0.24292703
35	0xbdecc0c8	-0.115602076
36	0xbe45a7f0	-0.19302344
37	0xbe494843	-0.19656472
38	0xbda0211b	-0.07818814
39	0xbcdfa609	-0.027300851
40	0xbe6fe445	-0.23426922
41	0xbe219802	-0.15780643
42	0xbe460640	-0.19338322
43	0xbdca5792	-0.09879984
44	0xbd508438	-0.050907344
45	0xbe94cabf	-0.29060933
46	0xbdbc8fa8	-0.09207088
47	0x3f2486fc	0.6426847
48	0xbe94fc88	-0.29098916
49	0xbe48ab97	-0.19596706
50	0xbdcb3820	-0.09922814
51	0xbdf98152	-0.12182869
52	0xbe48bf5a	-0.19604245
53	0xbe7fbd68	-0.24974597
54	0xbee0473e	-0.43804353
55	0xbe2ecd42	-0.17070487
56	0xbe04e168	-0.1297661
57	0xbe6ba361	-0.23011543
58	0xbe46d0db	-0.1941561
59	0xbf0076e9	-0.5018144
60	0xbdfb4df8	-0.12270731
61	0xbd4af714	-0.04955204
62	0xbe9d3875	-0.30707136
63	0xbd9ed9bd	-0.07756374

weight f4 [64]
0	0x3f5cf628	0.86313105
1	0x3f354f5d	0.70824224
2	0x3e061504	0.13093954
3	0x3e6bed04	0.23039633
4	0x3e089b14	0.13340408
5	0x3f7798c7	0.96717495
6	0x3f18a8b9	0.5963245
7	0x3f42e072	0.76123726
8	0x3e505d38	0.2034806
9	0x3f3b3462	0.73126805
10	0x3f11b35b	0.569143
11	0x3f3ed08d	0.74536973
12	0x3ecacfba	0.39611608
13	0x3e8ecf14	0.27892363
14	0x3f79bd5f	0.9755458
15	0x3ec38134	0.38184512
16	0x3dfad890	0.12248337
17	0x3f2ee2dd	0.68314916
18	0x3e5f67f0	0.21816993
19	0x3e103b34	0.14085084
20	0x3eac7406	0.3368227
21	0x3da133b0	0.07871187
22	0x3f3c9bbf	0.7367515
23	0x3f3f28c2	0.74671566
24	0x3ec661bc	0.3874644
25	0x3f1204dc	0.57038665
26	0x3f560fea	0.8361803
27	0x3f3baeb0	0.73313427
28	0x3f7ae192	0.98000443
29	0x3eabf038	0.3358171
30	0x3ed64200	0.4184723
31	0x3f1037ba	0.5633503
32	0x3ef21354	0.4728037
33	0x3f234b42	0.6378671
34	0x3c9cdc80	0.019148111
35	0x3f1298e7	0.5726456
36	0x3f517f0c	0.81834483
37	0x3f1e1589	0.6175161
38	0x3ea560a0	0.32300282
39	0x3f1450f4	0.57936025
40	0x3f1815a3	0.59408015
41	0x3e61497c	0.22000688
42	0x3d4c2200	0.049837112
43	0x3e72ca90	0.23710084
44	0x3edca570	0.4309497
45	0x3f07adc6	0.5299953
46	0x3f5a449b	0.85260934
47	0x3f105dad	0.5639294
48	0x3ee79c7a	0.4523657
49	0x3f2e1013	0.6799328
50	0x3ed60844	0.4180318
51	0x3f666068	0.89990854
52	0x3f34c808	0.70617723
53	0x3efbc778	0.4917562
54	0x3e358eb8	0.17730224
55	0x3f0f9b3c	0.56096244
56	0x3eb3c5d6	0.35111874
57	0x3ef68bde	0.48153585
58	0x3f5c8e7e	0.86154926
59	0x3f66e250	0.90189075
60	0x3ded1ba8	0.11577541
61	0x3f5dc74b	0.8663222
62	0x3f4ed3bd	0.80791837
63	0x3e6b7688	0.22994435

bias f4 [64]
0	0x00000000	0.0
1	0x00000000	0.0
2	0x00000000	0.0
3	0x00000000	0.0
4	0x00000000	0.0
5	0x00000000	0.0
6	0x00000000	0.0
7	0x00000000	0.0
8	0x00000000	0.0
9	0x00000000	0.0
10	0x00000000	0.0
11	0x00000000	0.0
12	0x00000000	0.0
13	0x00000000	0.0
14	0x00000000	0.0
15	0x00000000	0.0
16	0x00000000	0.0
17	0x00000000	0.0
18	0x00000000	0.0
19	0x00000000	0.0
20	0x00000000	0.0
21	0x00000000	0.0
22	0x00000000	0.0
23	0x00000000	0.0
24	0x00000000	0.0
25	0x00000000	0.0
26	0x00000000	0.0
27	0x00000000	0.0
28	0x00000000	0.0
29	0x00000000	0.0
30	0x00000000	0.0
31	0x00000000	0.0
32	0x00000000	0.0
33	0x00000000	0.0
34	0x00000000	0.0
35	0x00000000	0.0
36	0x00000000	0.0
37	0x00000000	0.0
38	0x00000000	0.0
39	0x00000000	0.0
40	0x00000000	0.0
41	0x00000000	0.0
42	0x00000000	0.0
43	0x00000000	0.0
44	0x00000000	0.0
45	0x00000000	0.0
46	0x00000000	0.0
47	0x00000000	0.0
48	0x00000000	0.0
49	0x00000000	0.0
50	0x00000000	0.0
51	0x00000000	0.0
52	0x00000000	0.0
53	0x00000000	0.0
54	0x00000000	0.0
55	0x00000000	0.0
56	0x00000000	0.0
57	0x00000000	0.0
58	0x00000000	0.0
59	0x00000000	0.0
60	0x00000000	0.0
61	0x00000000	0.0
62	0x00000000	0.0
63	0x00000000	0.0

running_mean f4 [64]
0	0x00000000	0.0
1	0x00000000	0.0
2	0x00000000	0.0
3	0x00000000	0.0
4	0x00000000	0.0
5	0x00000000	0.0
6	0x00000000	0.0
7	0x00000000	0.0
8	0x00000000	0.0
9	0x00000000	0.0
10	0x00000000	0.0
11	0x00000000	0.0
12	0x00000000	0.0
13	0x00000000	0.0
14	0x00000000	0.0
15	0x00000000	0.0
16	0x00000000	0.0
17	0x00000000	0.0
18	0x00000000	0.0
19	0x00000000	0.0
20	0x00000000	0.0
21	0x00000000	0.0
22	0x00000000	0.0
23	0x00000000	0.0
24	0x00000000	0.0
25	0x00000000	0.0
26	0x00000000	0.0
27	0x00000000	0.0
28	0x00000000	0.0
29	0x00000000	0.0
30	0x00000000	0.0
31	0x00000000	0.0
32	0x00000000	0.0
33	0x00000000	0.0
34	0x00000000	0.0
35	0x00000000	0.0
36	0x00000000	0.0
37	0x00000000	0.0
38	0x00000000	0.0
39	0x00000000	0.0
40	0x00000000	0.0
41	0x00000000	0.0
42	0x00000000	0.0
43	0x00000000	0.0
44	0x00000000	0.0
45	0x00000000	0.0
46	0x00000000	0.0
47	0x00000000	0.0
48	0x00000000	0.0
49	0x00000000	0.0
50	0x00000000	0.0
51	0x00000000	0.0
52	0x00000000	0.0
53	0x00000000	0.0
54	0x00000000	0.0
55	0x00000000	0.0
56	0x00000000	0.0
57	0x00000000	0.0
58	0x00000000	0.0
59	0x00000000	0.0
60	0x00000000	0.0
61	0x00000000	0.0
62	0x00000000	0.0
63	0x00000000	0.0

running_var f4 [64]
0	0x3f800000	1.0
1	0x3f800000	1.0
2	0x3f800000	1.0
3	0x3f800000	1.0
4	0x3f800000	1.0
5	0x3f800000	1.0
6	0x3f800000	1.0
7	0x3f800000	1.0
8	0x3f800000	1.0
9	0x3f800000	1.0
10	0x3f800000	1.0
11	0x3f800000	1.0
12	0x3f800000	1.0
13	0x3f800000	1.0
14	0x3f800000	1.0
15	0x3f800000	1.0
16	0x3f800000	1.0
17	0x3f800000	1.0
18	0x3f800000	1.0
19	0x3f800000	1.0
20	0x3f800000	1.0
21	0x3f800000	1.0
22	0x3f800000	1.0
23	0x3f800000	1.0
24	0x3f800000	1.0
25	0x3f800000	1.0
26	0x3f800000	1.0
27	0x3f800000	1.0
28	0x3f800000	1.0
29	0x3f800000	1.0
30	0x3f800000	1.0
31	0x3f800000	1.0
32	0x3f800000	1.0
33	0x3f800000	1.0
34	0x3f800000	1.0
35	0x3f800000	1.0
36	0x3f800000	1.0
37	0x3f800000	1.0
38	0x3f800000	1.0
39	0x3f800000	1.0
40	0x3f800000	1.0
41	0x3f800000	1.0
42	0x3f800000	1.0
43	0x3f800000	1.0
44	0x3f800000	1.0
45	0x3f800000	1.0
46	0x3f800000	1.0
47	0x3f800000	1.0
48	0x3f800000	1.0
49	0x3f800000	1.0
50	0x3f800000	1.0
51	0x3f800000	1.0
52	0x3f800000	1.0
53	0x3f800000	1.0
54	0x3f800000	1.0
55	0x3f800000	1.0
56	0x3f800000	1.0
57	0x3f800000	1.0
58	0x3f800000	1.0
59	0x3f800000	1.0
60	0x3f800000	1.0
61	0x3f800000	1.0
62	0x3f800000	1.0
63	0x3f800000	1.0

weight f4 [64, 64, 1, 1]
0	0xbbe4848d	-0.006973809
1	0xbd8bd598	-0.06827849
2	0x3d8d0e3d	0.06887481
3	0x3d0a163d	0.033712614
4	0xbd5fea04	-0.054666534
5	0x3db592fa	0.08865924
6	0xbf2e49bd	-0.68081266
7	0x3c8bea56	0.017079514
8	0xbc42fbc5	-0.011900847
9	0xbdf57a13	-0.119861744
10	0xbdb9c7d2	-0.09071316
11	0xbd39f5cd	-0.04540043
12	0x3ccd2be4	0.025045343
13	0xbe9cde48	-0.30638337
14	0x3b0d7111	0.0021582285
15	0x3d08e351	0.03341991
16	0x3da08b0c	0.07839021
17	0x398c33d1	0.00026741487
18	0xbe229765	-0.15878065
19	0x3d43845e	0.047733657
20	0x3cb98ae5	0.022649238
21	0x3ddd4b58	0.10805386
22	0xbd6d4e93	-0.057936262
23	0x3e26c8a1	0.16287471
24	0xbf92c384	-1.1465917
25	0x3d01411b	0.03155623
26	0xbd7506a7	-0.059820797
27	0xbe80fbde	-0.2519216
28	0xbdcf5944	-0.10124448
29	0x3f32bd1f	0.69819826
30	0x3cf45b09	0.029828565
31	0x3efddf80	0.4958458
32	0x3e1b3a71	0.15159012
33	0x3d7eedb7	0.06223842
34	0xbdeb2cb1	-0.114831336
35	0xbddde938	-0.108354986
36	0x3e06a4fa	0.13148871
37	0xbdcfd91a	-0.10148831
38	0x3dc9011e	0.09814666
39	0x3d64c8ea	0.05585567
40	0xbf6b31df	-0.9187297
41	0x3d6b76c4	0.05748631
42	0x3e43f935	0.19138034
43	0xbd8a1b1c	-0.06743452
44	0xbdbe5521	-0.09293581
45	0xbf1692e0	-0.58817863
46	0x3cf75f96	0.030196946
47	0xbf353add	-0.70792943
48	0x3d8602d8	0.06543511
49	0x3a4a2cb0	0.00077123474
50	0xbd7b244d	-0.061313916
51	0xbd5e9676	-0.05434271
52	0x3e8dbeb8	0.2768457
53	0xbd7b0597	-0.061284628
54	0xbdc350ec	-0.09536919
55	0x3ddb0ebe	0.10696171
56	0xbd8f845e	-0.07007669
57	0xbd965a70	-0.07341468
58	0xbd384af9	-0.044993374
59	0x3d8a7720	0.067610025
60	0xbd72cb5c	-0.05927597
61	0xbdeee59c	-0.11664888
62	0xbd90b544	-0.07065824
63	0x3d500bc0	0.050792456
64	0xbdf6bdc5	-0.120479144
65	0xbd99bcba	-0.075067
66	0xbd7fbf45	-0.06243827
67	0xbd20405a	-0.03912387
68	0x3d80cacd	0.06288681
69	0xbdaf539f	-0.08560871
70	0x3d8468d2	0.064653054
71	0x3d3ae47b	0.045628052
72	0x3b534feb	0.003224368
73	0xbd995a76	-0.07487957
74	0xbd92dfe6	-0.071716115
75	0x3de4df16	0.11175363
76	0xbc84933b	-0.016183486
77	0x3c28e925	0.010309492
78	0xbe067185	-0.13129242
79	0x3d63805a	0.055542327
80	0x3d8b9abd	0.06816623
81	0x3d982828	0.07429534
82	0x3a08ee18	0.0005223467
83	0xbc151253	-0.009098607
84	0xbdf0f437	-0.1176533
85	0x3c47011e	0.012146262
86	0xbe08f238	-0.13373649
87	0xbe95d781	-0.2926598
88	0xbe8bb4d5	-0.272864
89	0xbbb11f64	-0.0054053534
90	0xbc237346	-0.009976214
91	0xbd889212	-0.06668486
92	0x3cd2971f	0.025706826
93	0xbbcf5b56	-0.0063280268
94	0x3d5e6b07	0.054301288
95	0xbdc68f53	-0.09695306
96	0x3df7d92e	0.121019706
97	0x3dc7c9fe	0.09755324
98	0xbd871c86	-0.06597237
99	0xbdbae8c4	-0.09126428
100	0xbd02805f	-0.031860705
101	0xbd9bef90	-0.07614052
102	0x3d8a7fc8	0.067626536
103	0xbe517243	-0.20453744
104	0x3c2af239	0.010433727
105	0x3d50a913	0.05094249
106	0x3d6b8a57	0.057504978
107	0xbd4fda46	-0.05074527
108	0xbdc0adb2	-0.0940813
109	0x3c865d98	0.01640205
110	0x3d0236b2	0.031790443
111	0xbe0d1621	-0.13777973
112	0xbd7a4683	-0.0611024
113	0xbdc61640	-0.096722126
114	0x3dac1995	0.08403317
115	0x3d1b8a7b	0.037973862
116	0x3d15cfbb	0.03657506
117	0xbdbaf5b7	-0.09128898
118	0xbd8aa49f	-0.0676968
119	0xbcec9953	-0.028881704
120	0x3c480aba	0.012209589
121	0x3d8ab345	0.06772474
122	0xbd78dc00	-0.060756683
123	0xbd3c9815	-0.046043474
124	0x3d551b79	0.052028153
125	0x3e001e9c	0.12511677
126	0xbe949a03	-0.29023752
127	0xbcafe5d9	-0.021471905
128	0xbe443011	-0.19158961
129	0xbdd725c8	-0.10505253
130	0xbda111db	-0.07864734
131	0x3d7bb0df	0.061447974
132	0x3cdcddc5	0.026961217
133	0xbd8452d1	-0.064611085
134	0x3d69e459	0.057102535
135	0x3d7fbf1d	0.06243812
136	0xbdc63f79	-0.09680075
137	0xbb45b8a9	-0.003016988
138	0x3d1253f8	0.03572461
139	0x3d8682ce	0.06567918
140	0xbe2533c4	-0.16133028
141	0x3ccf6be5	0.025320003
142	0xbdc247da	-0.09486361
143	0x3c75416b	0.01496921
144	0x3d3682d8	0.044558376
145	0x3c508b30	0.012728497
146	0x3d9fde8a	0.07806118
147	0x3d614867	0.05500069
148	0x3db65505	0.08902935
149	0x3d7b64c8	0.06137541
150	0x3d851063	0.06497266
151	0xbdaacf92	-0.08340372
152	0xbda2d9d1	-0.079517014
153	0xbcc2686d	-0.023731435
154	0x3d155583	0.036458503
155	0x3c98df75	0.01866124
156	0xbba955e4	-0.0051677097
157	0xbde5b98d	-0.11217032
158	0xbd508a12	-0.050912924
159	0xbd96730d	-0.07346163
160	0xbd9fc977	-0.07802098
161	0x3c5233f1	0.012829767
162	0xbdd1a0c8	-0.10235745
163	0xbd99b1d5	-0.07504622
164	0xbd7b72fe	-0.061388962
165	0xbd24f940	-0.040276766
166	0xbbb201a1	-0.005432323
167	0xbcd7d510	-0.026346713
168	0xbdb835c4	-0.0899463
169	0xbdf76968	-0.120806515
170	0x3d571895	0.052513678
171	0xbd00c2fe	-0.03143596
172	0xbc8a4dc3	-0.016882783
173	0xbd815f34	-0.06316987
174	0xbc7ba8a3	-0.01536003
175	0xbe0493a1	-0.12946941
176	0xbd93cc17	-0.072166614
177	0xbde35ee4	-0.11102083
178	0x3d703e7f	0.05865335
179	0x3d89017f	0.066897385
180	0x3c634880	0.013872266
181	0x39204041	0.00015282726
182	0xbd67dbef	-0.05660623
183	0x3d527361	0.051379565
184	0xbd96b328	-0.0735839
185	0x3d8ee1e1	0.06976677
186	0xbe04b6d8	-0.12960374
187	0xbd260c61	-0.04053915
188	0xbcf6a291	-0.030106815
189	0xb835e193	-4.3363845e-05
190	0xbd1391b8	-0.03602764
191	0xbc046dae	-0.00808279
192	0x3cceac7a	0.025228728
193	0x3d5ed9c4	0.054406896
194	0x3e17637c	0.14784044
195	0x3d3a0ee4	0.045424357
196	0xbd7dcd90	-0.061963618
197	0x3d28c0a1	0.04119933
198	0x3db32c8b	0.0874873
199	0xbd8220e3	-0.06353929
200	0x3d076620	0.03305638
201	0xbd970bde	-0.0737531
202	0x3c957d15	0.01824812
203	0xbdcead8e	-0.10091697
204	0x3c248fc3	0.010044041
205	0xbe729061	-0.23687889
206	0xbccb56b3	-0.024821615
207	0xbdab1644	-0.08353856
208	0xbd9294ba	-0.071572736
209	0x3d1d90d5	0.0384682
210	0x3c49834a	0.012299368
211	0xbdf1de7a	-0.11810012
212	0x3d85e92b	0.06538614
213	0xbda60e54	-0.081082016
214	0xbc20be39	-0.009810978
215	0x3dcc3383	0.099707626
216	0xbe05ea79	-0.13077725
217	0x3d5b004c	0.05346708
218	0x3d9188f5	0.071062006
219	0x3d509716	0.050925337
220	0xbdb06745	-0.08613447
221	0x3c9802ec	0.01855608
222	0x3cf99d4a	0.03047051
223	0xbd78fd22	-0.06078828
224	0x3d7ede5b	0.062223773
225	0x3d1d409c	0.038391694
226	0xbd131619	-0.035909746
227	0x3c0d8037	0.008636526
228	0xbc4a8d06	-0.012362724
229	0xbdc63de5	-0.09679774
230	0x3d0658ce	0.032799534
231	0xbb43ee51	-0.0029896686
232	0xbda705cd	-0.08155403
233	0xbdd9a3a4	-0.10626915
234	0xbb12ff66	-0.0022430061
235	0x3d38bd8d	0.045102645
236	0x3d9a4aaf	0.07533776
237	0xbe93bfa1	-0.2885714
238	0x3dfa2a50	0.12215102
239	0xbe27dcba	-0.16392794
240	0x3d985a3b	0.07439085
241	0x3cd14a05	0.02554799
242	0x3b44aea7	0.0030011327
243	0x3d0ed7c2	0.03487373
244	0xbd4cdba4	-0.050014153
245	0x3d3e4cb0	0.046459854
246	0xbe37f362	-0.17963937
247	0x3cb70f2a	0.022346098
248	0x3dc9c5ce	0.098521814
249	0x3bda17b6	0.0066556586
250	0xbd2ad2c6	-0.041704915
251	0xbdef1eee	-0.11675821
252	0x3cd92443	0.026506549
253	0xbd00ab53	-0.031413388
254	0xbdd05b00	-0.10173607
255	0x3d062a6e	0.032755308

bias f4 [64]
0	0xbe41b19d	-0.1891541
1	0xbe4b50fe	-0.19855115
2	0xbe585e6c	-0.21129769
3	0xbe9cce62	-0.30626208
4	0xbea7f449	-0.32803562
5	0xbe4e5184	-0.20148283
6	0xbf0be71c	-0.5464952
7	0xbe9c4426	-0.30520743
8	0xbd34bb83	-0.044124138
9	0xbeb52890	-0.3538251
10	0xbe028fcd	-0.12750168
11	0xbe9beb19	-0.30452803
12	0xbe87ec99	-0.26547697
13	0xbe8384f6	-0.2568738
14	0xbe455738	-0.19271553
15	0xbdc681e1	-0.09692741
16	0xbe41764a	-0.1889278
17	0xbe4b7e3d	-0.19872375
18	0xbd69f1b3	-0.057115268
19	0xbdfa3808	-0.12217718
20	0xbeac0f72	-0.33605534
21	0x3e3e9d0c	0.18614596
22	0xbe9f8876	-0.311588
23	0xbea03a9b	-0.31294712
24	0xbe1076c0	-0.141078
25	0x3f00bc61	0.50287443
26	0xbe982481	-0.2971535
27	0xbe30b533	-0.17256622
28	0x3cc2b405	0.02376748
29	0xbe8b2eb8	-0.2718408
30	0xbde92027	-0.11383086
31	0xbe94fca7	-0.29099008
32	0xbe2e8262	-0.17041925
33	0xbf3c73f4	-0.7361443
34	0xbe44e210	-0.19226861
35	0xbe906388	-0.28200936
36	0x3f0f0b56	0.5587667
37	0xbe141df1	-0.14464547
38	0xbe374338	-0.17896736
39	0xbe4f027f	-0.20215796
40	0x3dfd6b33	0.12373962
41	0xbd0fedbc	-0.03513883
42	0xbef6cb18	-0.48201823
43	0xbe3824db	-0.17982809
44	0xbe7b3070	-0.24530196
45	0xbe94170c	-0.28923833
46	0xbeaa6544	-0.33280385
47	0x3bf16303	0.0073665394
48	0xbe88ed69	-0.2674363
49	0xbdd0135a	-0.10159941
50	0xbee50e0f	-0.44737288
51	0xbf225207	-0.63406414
52	0xbe5b7a49	-0.21433367
53	0x3ce88ab7	0.028386457
54	0xbe5e2f34	-0.21697694
55	0xbd375cb5	-0.044766147
56	0xbf5b0f12	-0.8556987
57	0xbe3c1b2a	-0.18369737
58	0x3ddeea28	0.108845055
59	0xbe4648f1	-0.19363762
60	0xbe9fd734	-0.31218874
61	0xbee6beae	-0.45067352
62	0xbe24794d	-0.16061898
63	0xbe55a808	-0.2086488

weight f4 [64]
0	0x3eb0ff90	0.3456998
1	0x3f2ed295	0.6829007
2	0x3e49e274	0.19715291
3	0x3f497641	0.78696066
4	0x3f5c92c6	0.8616146
5	0x3f47ef4c	0.78099513
6	0x3ed92d9a	0.42417604
7	0x3da2d650	0.07951033
8	0x3ed817c2	0.42205626
9	0x3f639028	0.8889184
10	0x3f1b3b30	0.6063719
11	0x3d708d40	0.058728456
12	0x3ed924a2	0.4241076
13	0x3e27f5f4	0.16402417
14	0x3e869c3c	0.26291072
15	0x3ee2dbf0	0.44308424
16	0x3d916138	0.07098621
17	0x3ee81f96	0.45336598
18	0x3f6de0c7	0.9292111
19	0x3f03a829	0.5142847
20	0x3f48b616	0.7840284
21	0x3d0d5640	0.034506083
22	0x3f42cc5b	0.7609307
23	0x3f2e16a5	0.680033
24	0x3f6c4893	0.9229824
25	0x3f2d54a4	0.67707276
26	0x3d93a128	0.072084725
27	0x3c03d340	0.008045971
28	0x3edc029c	0.4297074
29	0x3f777e92	0.96677506
30	0x3f1ed61c	0.62045455
31	0x3ed0332e	0.40664047
32	0x3f5320c4	0.8247187
33	0x3f1e4649	0.61825997
34	0x3f056ea9	0.5212198
35	0x3f021056	0.50806177
36	0x3dea6f98	0.11447066
37	0x3e371bd4	0.1788171
38	0x3eab08ec	0.33405244
39	0x3ef95788	0.48699594
40	0x3e250c64	0.16118008
41	0x3f411d82	0.7543565
42	0x3f26f15f	0.65212053
43	0x3e94d060	0.29065228
44	0x3f17d78e	0.59313285
45	0x3eb3e19c	0.35133064
46	0x3f441757	0.76598114
47	0x3f32ae5a	0.6979729
48	0x3e663d04	0.22484213
49	0x3ee1da66	0.44111937
50	0x3f54ef69	0.8317781
51	0x3f61878c	0.88097453
52	0x3f1040f4	0.5634911
53	0x3f7f5feb	0.99755734
54	0x3f755e21	0.95846754
55	0x3ef350b0	0.47522497
56	0x3f074fdb	0.52856225
57	0x3f089061	0.53345305
58	0x3e8e3284	0.27772915
59	0x3f6e4d83	0.93087023
60	0x3f25d4ea	0.64778006
61	0x3f3d2fdb	0.73901147
62	0x3e903258	0.2816341
63	0x3f15a63c	0.5845678

bias f4 [64]
0	0x00000000	0.0
1	0x00000000	0.0
2	0x00000000	0.0
3	0x00000000	0.0
4	0x00000000	0.0
5	0x00000000	0.0
6	0x00000000	0.0
7	0x00000000	0.0
8	0x00000000	0.0
9	0x00000000	0.0
10	0x00000000	0.0
11	0x00000000	0.0
12	0x00000000	0.0
13	0x00000000	0.0
14	0x00000000	0.0
15	0x00000000	0.0
16	0x00000000	0.0
17	0x00000000	0.0
18	0x00000000	0.0
19	0x00000000	0.0
20	0x00000000	0.0
21	0x00000000	0.0
22	0x00000000	0.0
23	0x00000000	0.0
24	0x00000000	0.0
25	0x00000000	0.0
26	0x00000000	0.0
27	0x00000000	0.0
28	0x00000000	0.0
29	0x00000000	0.0
30	0x00000000	0.0
31	0x00000000	0.0
32	0x00000000	0.0
33	0x00000000	0.0
34	0x00000000	0.0
35	0x00000000	0.0
36	0x00000000	0.0
37	0x00000000	0.0
38	0x00000000	0.0
39	0x00000000	0.0
40	0x00000000	0.0
41	0x00000000	0.0
42	0x00000000	0.0
43	0x00000000	0.0
44	0x00000000	0.0
45	0x00000000	0.0
46	0x00000000	0.0
47	0x00000000	0.0
48	0x00000000	0.0
49	0x00000000	0.0
50	0x00000000	0.0
51	0x00000000	0.0
52	0x00000000	0.0
53	0x00000000	0.0
54	0x00000000	0.0
55	0x00000000	0.0
56	0x00000000	0.0
57	0x00000000	0.0
58	0x00000000	0.0
59	0x00000000	0.0
60	0x00000000	0.0
61	0x00000000	0.0
62	0x00000000	0.0
63	0x00000000	0.0

running_mean f4 [64]
0	0x00000000	0.0
1	0x00000000	0.0
2	0x00000000	0.0
3	0x00000000	0.0
4	0x00000000	0.0
5	0x00000000	0.0
6	0x00000000	0.0
7	0x00000000	0.0
8	0x00000000	0.0
9	0x00000000	0.0
10	0x00000000	0.0
11	0x00000000	0.0
12	0x00000000	0.0
13	0x00000000	0.0
14	0x00000000	0.0
15	0x00000000	0.0
16	0x00000000	0.0
17	0x00000000	0.0
18	0x00000000	0.0
19	0x00000000	0.0
20	0x00000000	0.0
21	0x00000000	0.0
22	0x00000000	0.0
23	0x00000000	0.0
24	0x00000000	0.0
25	0x00000000	0.0
26	0x00000000	0.0
27	0x00000000	0.0
28	0x00000000	0.0
29	0x00000000	0.0
30	0x00000000	0.0
31	0x00000000	0.0
32	0x00000000	0.0
33	0x00000000	0.0
34	0x00000000	0.0
35	0x00000000	0.0
36	0x00000000	0.0
37	0x00000000	0.0
38	0x00000000	0.0
39	0x00000000	0.0
40	0x00000000	0.0
41	0x00000000	0.0
42	0x00000000	0.0
43	0x00000000	0.0
44	0x00000000	0.0
45	0x00000000	0.0
46	0x00000000	0.0
47	0x00000000	0.0
48	0x00000000	0.0
49	0x00000000	0.0
50	0x00000000	0.0
51	0x00000000	0.0
52	0x00000000	0.0
53	0x00000000	0.0
54	0x00000000	0.0
55	0x00000000	0.0
56	0x00000000	0.0
57	0x00000000	0.0
58	0x00000000	0.0
59	0x00000000	0.0
60	0x00000000	0.0
61	0x00000000	0.0
62	0x00000000	0.0
63	0x00000000	0.0

running_var f4 [64]
0	0x3f800000	1.0
1	0x3f800000	1.0
2	0x3f800000	1.0
3	0x3f800000	1.0
4	0x3f800000	1.0
5	0x3f800000	1.0
6	0x3f800000	1.0
7	0x3f800000	1.0
8	0x3f800000	1.0
9	0x3f800000	1.0
10	0x3f800000	1.0
11	0x3f800000	1.0
12	0x3f800000	1.0
13	0x3f800000	1.0
14	0x3f800000	1.0
15	0x3f800000	1.0
16	0x3f800000	1.0
17	0x3f800000	1.0
18	0x3f800000	1.0
19	0x3f800000	1.0
20	0x3f800000	1.0
21	0x3f800000	1.0
22	0x3f800000	1.0
23	0x3f800000	1.0
24	0x3f800000	1.0
25	0x3f800000	1.0
26	0x3f800000	1.0
27	0x3f800000	1.0
28	0x3f800000	1.0
29	0x3f800000	1.0
30	0x3f800000	1.0
31	0x3f800000	1.0
32	0x3f800000	1.0
33	0x3f800000	1.0
34	0x3f800000	1.0
35	0x3f800000	1.0
36	0x3f800000	1.0
37	0x3f800000	1.0
38	0x3f800000	1.0
39	0x3f800000	1.0
40	0x3f800000	1.0
41	0x3f800000	1.0
42	0x3f800000	1.0
43	0x3f800000	1.0
44	0x3f800000	1.0
45	0x3f800000	1.0
46	0x3f800000	1.0
47	0x3f800000	1.0
48	0x3f800000	1.0
49	0x3f800000	1.0
50	0x3f800000	1.0
51	0x3f800000	1.0
52	0x3f800000	1.0
53	0x3f800000	1.0
54	0x3f800000	1.0
55	0x3f800000	1.0
56	0x3f800000	1.0
57	0x3f800000	1.0
58	0x3f800000	1.0
59	0x3f800000	1.0
60	0x3f800000	1.0
61	0x3f800000	1.0
62	0x3f800000	1.0
63	0x3f800000	1.0

weight f4 [512, 64]
0	0xbe25f1c1	-0.16205503
1	0x3d3fb927	0.046807434
2	0x3e04838c	0.12940806
3	0x3d04685e	0.032326095
4	0x3c95c664	0.018283077
5	0xbbf2bca9	-0.007407744
6	0xbdd17964	-0.102282315
7	0xbe671441	-0.2256632
8	0xbdaf0413	-0.08545699
9	0x3cb5b2e7	0.022180034
10	0xbdd0222f	-0.1016277
11	0x3bcbebfe	0.006223201
12	0xbd25071e	-0.04028999
13	0x3e482b01	0.19547655
14	0xbd0b7120	-0.03404343
15	0x3c665739	0.014058881
16	0x3c1a8921	0.009432108
17	0xbdc6ddfa	-0.097103074
18	0xbddebcb6	-0.108758375
19	0xbe1f2aa9	-0.15543617
20	0xbd2de96e	-0.042458944
21	0xbe4559df	-0.19272564
22	0xbd6a2985	-0.057168502
23	0xbca7acea	-0.020468194
24	0x3d207881	0.03917742
25	0xbde3db63	-0.11125829
26	0xbd10a02b	-0.035308998
27	0x3daca0da	0.084291175
28	0xbdb7a45a	-0.089668944
29	0xbdc65721	-0.09684587
30	0x3ca2bbf0	0.019865006
31	0x3dbbac46	0.09163718
32	0x3d87b500	0.0662632
33	0xbe3c5885	-0.18393143
34	0x3c191dfd	0.009345529
35	0xbb127220	-0.0022345856
36	0xbc681c95	-0.014166971
37	0xbde60088	-0.1123057
38	0xbe11bdbb	-0.14232533
39	0xbc0ab6e0	-0.008466452
40	0xbc287157	-0.010280929
41	0x3c8db494	0.01729802
42	0xbb7cd4ad	-0.0038578913
43	0x3ce68434	0.028139211
44	0xbd97c178	-0.07409948
45	0xbb730c64	-0.0037086243
46	0x3d0d4855	0.03449281
47	0xbd584108	-0.052796394
48	0xbc9e00f5	-0.019287566
49	0x3c792136	0.015205672
50	0xbe07147e	-0.13191411
51	0x3bdfee0a	0.0068337964
52	0xbd9f2ef5	-0.07772628
53	0xbd442e17	-0.047895517
54	0xbceabe09	-0.028655069
55	0x3d0693ac	0.032855675
56	0x3c0eab7d	0.008707878
57	0xbd74ed5e	-0.059796683
58	0xbd1b16d5	-0.03786357
59	0x3ca488ee	0.020084824
60	0xbd5c30c8	-0.05375746
61	0x3ce37c1d	0.027769143
62	0xbd9894c9	-0.074502535
63	0xbdd0ad2e	-0.101892814
64	0xbcedb0d9	-0.029014992
65	0xbdb5278c	-0.088454336
66	0xbbdeadba	-0.006795612
67	0xb8cfdf81	-9.91216e-05
68	0xbcbb3f39	-0.022857295
69	0xbda0a0aa	-0.07843144
70	0xbce0b9b8	-0.027432308
71	0xbdd417a2	-0.1035607
72	0x3c922f96	0.017844956
73	0x3e097106	0.13422021
74	0xbd59e119	-0.053193185
75	0xbde29565	-0.11063651
76	0x3d2e174a	0.04250268
77	0x3c8d0aaa	0.017217
78	0xbccae8bf	-0.024769185
79	0xbd77e013	-0.06051643
80	0x3df4a696	0.11945836
81	0x3d55d348	0.052203447
82	0xbd85941f	-0.065223925
83	0xbe153551	-0.1457112
84	0x3d8b3736	0.0679764
85	0xbda8401a	-0.082153514
86	0x3bf8902a	0.007585545
87	0xbc61f051	-0.013790206
88	0x3bc5a969	0.006032158
89	0xbd2d3a6f	-0.042292055
90	0x3dc3c4bc	0.095590085
91	0x3d150c88	0.036388904
92	0x3be87a5d	0.007094665
93	0x3d770a38	0.06031248
94	0xbca7b748	-0.020473137
95	0xbd7d0f5e	-0.061782233
96	0xbdcbfe9a	-0.09960671
97	0xbe1be51f	-0.15224122
98	0xbdb9aff3	-0.09066763
99	0xbdff9596	-0.12479703
100	0xb8bc0ebe	-8.9672845e-05
101	0xbd1f7edf	-0.038939353
102	0xbd89a53f	-0.06720971
103	0x3de5595f	0.11198687
104	0xbe75b7a4	-0.23995835
105	0xbd3bbaae	-0.04583233
106	0xbde4157c	-0.1113691
107	0x3dbab539	0.09116597
108	0xbb3b63c4	-0.00285934
109	0x3c301a9e	0.0107485335
110	0xbd27af49	-0.04093865
111	0x3d9e073f	0.07716226
112	0xbdde7ed2	-0.10864033
113	0xbda1cba0	-0.079001665
114	0xbc889686	-0.016673338
115	0xbe5466c5	-0.20742328
116	0xbc23ad69	-0.009990075
117	0xbcf668e6	-0.030079316
118	0x3dcda19a	0.10040589
119	0xbc94c69a	-0.018161107
120	0xbc9fade6	-0.0194921
121	0xbdd0b2e3	-0.1019037
122	0x3b830093	0.003997871
123	0x3e00c687	0.12575732
124	0xbd2dc699	-0.042425726
125	0xbd87373f	-0.06602334
126	0x3da3455d	0.07972214
127	0x3d5c3da0	0.053769708
128	0xbe7590fa	-0.23981085
129	0x3dea6ec8	0.11446911
130	0xbdcc28fc	-0.09968755
131	0xbd13e5fa	-0.036107995
132	0x3dd47085	0.10373024
133	0xbd4c748c	-0.049915835
134	0x3c90d2c9	0.017678635
135	0xbd7ac7e6	-0.061225794
136	0xbc44a857	-0.012003026
137	0x3b0b5ec1	0.0021266195
138	0xbcc4c832	-0.024021242
139	0xbe221f5a	-0.15832272
140	0xbd1a4af9	-0.037669156
141	0xbd3f8da2	-0.04676593
142	0xbbfea4ae	-0.007771096
143	0xbdfc1af8	-0.123098314
144	0xbd894878	-0.067032754
145	0xbe52202b	-0.20520084
146	0x3c8ba9c0	0.017048717
147	0xbd688b40	-0.056773424
148	0xbe09b651	-0.13448454
149	0xbd8ba2f0	-0.06818187
150	0xbe6767f0	-0.22598243
151	0xbda977c3	-0.08274796
152	0xbe26f470	-0.16304183
153	0xbe8b9a55	-0.27266183
154	0x3ce74225	0.028229782
155	0xbc9986c2	-0.018741015
156	0x3c22e743	0.009942832
157	0xbdf14e3b	-0.117824994
158	0xbce22e30	-0.027609915
159	0xbd9653e0	-0.07340217
160	0xbde4a0e1	-0.11163498
161	0x3e4fc82d	0.20291205
162	0xbd51eb3d	-0.05124973
163	0xbdda5448	-0.106606066
164	0xbbab12af	-0.005220733
165	0x3e1e7c97	0.15477215
166	0xbd8358ea	-0.064134434
167	0x3dc6da1a	0.09709568
168	0xbecb6ede	-0.39733022
169	0x3d45bbd6	0.048274837
170	0xbda32890	-0.07966721
171	0xbdf8d8de	-0.12150739
172	0xbde735b8	-0.11289543
173	0x3d020899	0.03174648
174	0xbe09afc6	-0.13445958
175	0xbe63c680	-0.2224369
176	0xbdc48c82	-0.09597112
177	0xbd329443	-0.043598425
178	0x392032db	0.00015277734
179	0xbde1c6cb	-0.11024245
180	0x3d6d77b8	0.0579755
181	0xbdad4f63	-0.084624074
182	0x3de5cd9c	0.112208575
183	0xbd93b2bf	-0.072118275
184	0xbe0baf4a	-0.13641086
185	0x3cfbd6f8	0.030742154
186	0xbe32c677	-0.17458521
187	0xbdbaf554	-0.09128824
188	0xbdfddc6b	-0.12395557
189	0xbd76d2d5	-0.06025966
190	0xbc68d620	-0.014211208
191	0x3d8ab0ac	0.06771979
192	0xbddfd912	-0.10930075
193	0xbda5d3f2	-0.08097066
194	0xbd6a88a0	-0.057259202
195	0xbd444c56	-0.047924362
196	0xbd85815c	-0.06518814
197	0x3b908e36	0.004411484
198	0xbdb319a0	-0.08745122
199	0x3d5ce668	0.05393067
200	0xbd8cee3b	-0.06881376
201	0x3cc8fdb8	0.024535045
202	0x3dceef07	0.101041846
203	0x3d949b2f	0.072561614
204	0x3dd92cbd	0.10604236
205	0xbd93d2ff	-0.07217979
206	0x3ce7c520	0.028292239
207	0xbd111e23	-0.03542913
208	0x3d4ae6cc	0.04953651
209	0xbdeb60d4	-0.11493078
210	0x3db42fb3	0.087981604
211	0x3d7b562d	0.06136148
212	0x3dac411e	0.084108576
213	0xbdcfeaf9	-0.10152239
214	0x3da3019f	0.079592936
215	0x3daca14d	0.08429203
216	0x3ce39a6b	0.027783593
217	0xbe3cd13d	-0.18439193
218	0xbd6c8fba	-0.057754256
219	0xbd0606cf	-0.032721337
220	0x3da07893	0.07835498
221	0xbd8dfbfe	-0.06932829
222	0xbdc6d858	-0.09709233
223	0x3dbb376e	0.09141432
224	0xbd76b462	-0.06023062
225	0x3d1d9c5b	0.03847919
226	0xbd722d16	-0.05912503
227	0x3dcc0fb6	0.09963934
228	0xbd48ee71	-0.04905552
229	0x3d286259	0.041109417
230	0x3da0d54e	0.07853185
231	0x3d28fa27	0.04125419
232	0x3ca85cd9	0.020552086
233	0x3d8a72d0	0.0676018
234	0x3e215c19	0.15757789
235	0xbd976f79	-0.073943086
236	0xbdecf138	-0.11569446
237	0xbc6c4297	-0.014420173
238	0xbd6b0c28	-0.05738464
239	0xbde0dc35	-0.10979501
240	0x3dab0822	0.083511606
241	0x3db19da4	0.08672646
242	0xbdee782e	-0.11644016
243	0x3d9167bc	0.07099864
244	0xba02a7c8	-0.0004984108
245	0xbde03715	-0.10948006
246	0xbd291b5c	-0.041285858
247	0xbd5e7710	-0.054312766
248	0xbdc8d83f	-0.09806871
249	0x3d8bb744	0.068220645
250	0xbd077423	-0.03306974
251	0x3d996e46	0.07491736
252	0xbc6ede06	-0.014579302
253	0x3bc487d5	0.0059976378
254	0xbd03d1e5	-0.032182593
255	0x3c27e660	0.010247797

bias f4 [512]
0	0xbd69aa7d	-0.057047356
1	0xbe518be8	-0.20463526
2	0xbe231004	-0.15924078
3	0xbe2a7627	-0.16646634
4	0xbe0b6faf	-0.13616823
5	0xbe1fec70	-0.15617537
6	0xbe750911	-0.2392924
7	0xbe076925	-0.13223703
8	0xbe29ba4d	-0.16574974
9	0xbe2e80a1	-0.17041256
10	0xbe836823	-0.25665388
11	0xbe0e055e	-0.13869235
12	0xbe23d4af	-0.15999101
13	0xbe3d1ca7	-0.18467961
14	0xbe24077c	-0.1601848
15	0xbe0450f0	-0.129215
16	0xbe283cc8	-0.16429436
17	0xbe6436db	-0.2228655
18	0xbe070cbe	-0.13188455
19	0xbe01163e	-0.12606141
20	0xbd6a29c1	-0.057168726
21	0xbe1e04bf	-0.15431498
22	0xbe34686e	-0.17617962
23	0xbe32a0af	-0.17444108
24	0xbe36906d	-0.17828532
25	0xbe3f9de7	-0.18712579
26	0xbe323b74	-0.17405492
27	0xbe1eeb4e	-0.15519449
28	0xbe78797c	-0.24265093
29	0xbdc0c45a	-0.09412451
30	0xbe27e5c9	-0.1639625
31	0xbe1646dc	-0.14675468
32	0xbe708214	-0.23487121
33	0xbe06b4db	-0.13154928
34	0xbe210b4f	-0.1572697
35	0xbea6a278	-0.3254583
36	0xbe1a207b	-0.15051453
37	0xbe4cc2d0	-0.1999619
38	0xbed1e460	-0.4099455
39	0xbe453db9	-0.19261827
40	0xbec6b8c3	-0.38812837
41	0xbe149071	-0.14508225
42	0xbd9531d5	-0.07284895
43	0xbe35cd95	-0.17754205
44	0xbe776f2a	-0.241635
45	0xbd93b463	-0.072121404
46	0xbe2aa49c	-0.16664356
47	0xbdf64f19	-0.120268054
48	0xbe0b38ed	-0.13595934
49	0xbddb216c	-0.10699734
50	0xbe879137	-0.26477978
51	0xbe56cc55	-0.20976384
52	0xbe6905ee	-0.22756168
53	0xbdbf3523	-0.09336307
54	0xbe1463a1	-0.1449113
55	0xbe21cc37	-0.15800558
56	0xbe0b439f	-0.13600014
57	0xbe8e55b7	-0.2779977
58	0xbe53a428	-0.2066809
59	0xbdba30c5	-0.09091333
60	0xbe336879	-0.17520322
61	0xbe432b3f	-0.19059466
62	0xbdbca107	-0.09210401
63	0xbe02791f	-0.12741517
64	0xbe126707	-0.14297114
65	0xbe535c6d	-0.20640726
66	0xbe97e878	-0.29669547
67	0xbe72f4ab	-0.23726146
68	0xbe6e772a	-0.23287645
69	0xbe66ce52	-0.22539642
70	0xbe8562ea	-0.26052028
71	0xbe72d1c6	-0.23712835
72	0xbe0c0736	-0.13674626
73	0xbe62a03c	-0.22131437
74	0xbe79795a	-0.24362698
75	0xbe4386ea	-0.19094434
76	0xbe256b95	-0.1615432
77	0xbe1a1ac2	-0.1504927
78	0xbd9d0716	-0.07667367
79	0xbe11e93d	-0.1424913
80	0xbe90013d	-0.28125945
81	0xbdf52ef3	-0.119718455
82	0xbdf613d7	-0.12015503
83	0xbe89db5a	-0.26925164
84	0xbe4f33e6	-0.20234641
85	0xbe577cc9	-0.21043696
86	0xbe39b2c4	-0.181346
87	0xbe14bfd6	-0.14526305
88	0xbe933a7c	-0.28755558
89	0xbe0ac191	-0.13550402
90	0xbdd43333	-0.10361328
91	0xbe06ecce	-0.13176271
92	0xbe24e663	-0.1610351
93	0xbe58ed2e	-0.21184227
94	0xbdef3ce3	-0.11681535
95	0xbe3f6124	-0.186894
96	0xbe328fff	-0.17437743
97	0xbdac0ab7	-0.08400481
98	0xbe1f8ab2	-0.15580252
99	0xbe21b059	-0.15789928
100	0xbd32290d	-0.04349618
101	0xbe04f1b0	-0.12982821
102	0xbe1bf86c	-0.15231484
103	0xbe3d2d5b	-0.18474333
104	0xbe28c517	-0.16481434
105	0xbe4ccff6	-0.20001206
106	0xbe538175	-0.20654853
107	0xbe5f5a9d	-0.2181191
108	0xbe542162	-0.2071586
109	0xbeccdf09	-0.40013912
110	0xbe154551	-0.14577223
111	0xbdf374d7	-0.1188752
112	0xbe565dda	-0.20934239
113	0xbe5c95fd	-0.21541591
114	0xbd372bf7	-0.044719663
115	0xbe542efa	-0.20721045
116	0xbe6c48ee	-0.23074695
117	0xbe093776	-0.13400063
118	0xbdd69b72	-0.104788676
119	0xbdcd6edb	-0.1003091
120	0xbe03e2af	-0.12879442
121	0xbe0104fd	-0.12599559
122	0xbe1ca1b0	-0.15296054
123	0xbea1b548	-0.3158362
124	0xbe51110c	-0.20416659
125	0xbda4dcd1	-0.0804993
126	0xbe824d2b	-0.254495
127	0xbe77182a	-0.24130312
128	0xbe690209	-0.22754683
129	0xbe3097d7	-0.17245422
130	0xbe27679d	-0.16348119
131	0xbe1b3ff6	-0.15161118
132	0xbe613098	-0.21991193
133	0xbda883ab	-0.08228239
134	0xbe0bfe30	-0.13671184
135	0xbe47e3b1	-0.19520451
136	0xbe0542ad	-0.13013716
137	0xbede7c23	-0.43454084
138	0xbdf78104	-0.12085155
139	0xbe2f0646	-0.17092237
140	0xbe07b94c	-0.13254279
141	0xbe237f8e	-0.15966627
142	0xbe3dff3c	-0.18554395
143	0xbdca0cb1	-0.09865702
144	0xbe1d32ca	-0.15351406
145	0xbe25be69	-0.16185917
146	0xbe40b30a	-0.18818298
147	0xbe5773ef	-0.21040319
148	0xbe48ebce	-0.19621202
149	0xbe81e23c	-0.25367916
150	0xbe30de2a	-0.17272249
151	0xbe17dbb0	-0.14829898
152	0xbe357842	-0.17721656
153	0xbe408bd7	-0.18803345
154	0xbcff4602	-0.031161312
155	0xbe693878	-0.22775447
156	0xbe03419e	-0.12818
157	0xbda013c9	-0.07816274
158	0xbe02fec9	-0.12792505
159	0xbe04cca4	-0.12968689
160	0xbe3ca04a	-0.1842052
161	0xbdeaecfb	-0.11470982
162	0xbe2e5d0f	-0.17027687
163	0xbdcae8e9	-0.09907705
164	0xbe420e4d	-0.18950768
165	0xbe08201f	-0.13293503
166	0xbe4bef5d	-0.19915529
167	0xbe6da52a	-0.23207536
168	0xbe53b56e	-0.20674679
169	0xbe53894d	-0.20657845
170	0xbe39e2cd	-0.18152924
171	0xbe3a5fc6	-0.18200597
172	0xbe5ebe97	-0.21752392
173	0xbe124252	-0.14283112
174	0xbdf42107	-0.11920362
175	0xbe8f1790	-0.27947664
176	0xbe34c231	-0.17652203
177	0xbe3e0c75	-0.1855944
178	0xbdf27991	-0.11839593
179	0xbe4657cc	-0.1936943
180	0xbe008888	-0.12552083
181	0xbe37eedd	-0.17962213
182	0xbe56db3d	-0.2098207
183	0xbe4c81a3	-0.19971327
184	0xbdd574da	-0.10422678
185	0xbe8200e1	-0.25391296
186	0xbe14a15a	-0.14514676
187	0xbe757c56	-0.23973212
188	0xbe4acc83	-0.19804578
189	0xbe776d0a	-0.24162689
190	0xbe145266	-0.14484558
191	0xbe4e1363	-0.20124583
192	0xbdd67846	-0.10472159
193	0xbe31dee3	-0.17370181
194	0xbe01312c	-0.12616414
195	0xbe14839e	-0.14503333
196	0xbeb25f3e	-0.3483829
197	0xbe3e42c6	-0.1858016
198	0xbda49677	-0.080365114
199	0xbe8450a6	-0.2584278
200	0xbe09f97b	-0.13474075
201	0xbdf25042	-0.11831714
202	0xbe1ce79d	-0.15322728
203	0xbe1bcf99	-0.15215911
204	0xbddbbcd8	-0.107293785
205	0xbe8f1cdb	-0.27951702
206	0xbe2d4e81	-0.16924478
207	0xbe022aa1	-0.12711574
208	0xbe791298	-0.24323499
209	0xbe03e20e	-0.12879202
210	0xbe6b1d1c	-0.22960323
211	0xbe523202	-0.20526889
212	0xbe30acec	-0.17253464
213	0xbe3a2e1a	-0.18181649
214	0xbe3ba86b	-0.18325965
215	0xbe040a91	-0.12894656
216	0xbdfb3e6b	-0.12267765
217	0xbe2c48d2	-0.16824654
218	0xbe813c0c	-0.25241125
219	0xbe25b594	-0.16182548
220	0xbe0af643	-0.13570504
221	0xbe39c5d9	-0.18141879
222	0xbde97043	-0.11398365
223	0xbe0733c2	-0.13203338
224	0xbde6538a	-0.112464026
225	0xbe844168	-0.2583115
226	0xbdf44efd	-0.11929128
227	0xbe4fb8d3	-0.20285349
228	0xbe5c3319	-0.21503867
229	0xbe40dd82	-0.18834499
230	0xbe6454ba	-0.22297946
231	0xbe768ea6	-0.24077854
232	0xbe410814	-0.18850738
233	0xbe5385a1	-0.20656444
234	0xbe054052	-0.13012818
235	0xbe6a2170	-0.22864318
236	0xbde96c31	-0.11397589
237	0xbe5062ad	-0.20350142
238	0xbdd52848	-0.10408074
239	0xbe86ede5	-0.26353374
240	0xbe059bfe	-0.13047788
241	0xbdebeb13	-0.11519446
242	0xbe729188	-0.23688328
243	0xbdd6aa5b	-0.104817115
244	0xbd98fc4d	-0.074699976
245	0xbe597377	-0.21235453
246	0xbe779c3e	-0.24180695
247	0xbe9718d7	-0.2951114
248	0xbe3fd76e	-0.18734524
249	0xbe73a933	-0.23795013
250	0xbdb2aa84	-0.087239295
251	0xbe178b88	-0.1479932
252	0xbe049212	-0.12946346
253	0xbe2e7ccc	-0.17039794
254	0xbe56090a	-0.20901886
255	0xbe47ec0f	-0.19523643
